test_data/model.pt (torch_old, 506298 bytes, 54 tensors)

gating_networks.0.filters.0.weight f4 [25, 1, 3, 1]
0	0x3f1126ea	0.56700003
1	0x3f102a0e	0.5631417
2	0xbdc1ff20	-0.09472489
3	0xbea5788a	-0.32318527
4	0xbbf92400	-0.0076031685
5	0xbe893964	-0.26801598
6	0xbe717e5c	-0.23583359
7	0xbeac0c48	-0.3360312
8	0xbeebb804	-0.4603883
9	0x3d350f70	0.044204175
10	0xbe304f02	-0.17217639
11	0x3d7a8f20	0.06117165
12	0xbe0ae462	-0.13563684
13	0xbf076fc5	-0.5290492
14	0x3e50a2fc	0.20374674
15	0xbeec0a43	-0.4610158
16	0xbec19708	-0.3781054
17	0x3e8951d8	0.26820254
18	0x3eee88c8	0.4658873
19	0x3e83cace	0.25740665
20	0x3eb7156e	0.35758537
21	0xbe9ef600	-0.31047058
22	0x3edc5e28	0.43040586
23	0xbe7e6324	-0.24842507
24	0x3f075592	0.52864945
25	0xbe78db56	-0.2430242
26	0xbee7a63e	-0.4524402
27	0x3bf8f400	0.0075974464
28	0xbf043f9f	-0.5165958
29	0xbe8996de	-0.26872915
30	0xbeb9ed94	-0.3631407
31	0x3edb91f0	0.4288478
32	0xbe90e732	-0.28301388
33	0xbea79dfd	-0.32737723
34	0x3e383340	0.179883
35	0x3dbef028	0.0932315
36	0x3b897a80	0.0041955113
37	0xbea5244d	-0.32254258
38	0xbe07f4b2	-0.13276938
39	0xbe5c3aa6	-0.21506748
40	0x3e939dcc	0.28831327
41	0x3e75f9f4	0.24021131
42	0xbe47b488	-0.19502461
43	0xbdec1ff4	-0.11529532
44	0xbd920020	-0.0712893
45	0x3e53894c	0.20657843
46	0x3f05e404	0.5230105
47	0xbdeed3fc	-0.116615266
48	0x3eb0608c	0.3444866
49	0x3df98798	0.121840656
50	0xbf091c73	-0.53559035
51	0x3f063438	0.5242343
52	0xbec9996e	-0.3937487
53	0x3eb33e60	0.35008526
54	0xbe8aff61	-0.27147964
55	0x3ea9dbe6	0.33175582
56	0xbe068876	-0.13137993
57	0xbf09bbd5	-0.53802234
58	0xbde23e28	-0.110470116
59	0xbeed63fa	-0.4636534
60	0x3ecc74e4	0.3993293
61	0xbefe6b5c	-0.49691284
62	0xbe9a4188	-0.3012812
63	0x3e1e1eac	0.15441388
64	0x3ede2e04	0.43394482
65	0x3e710170	0.23535705
66	0x3ef50428	0.47854733
67	0xbe3b7744	-0.18307215
68	0x3dc0a9e8	0.09407407
69	0x3e490a10	0.19632745
70	0xbad81000	-0.001648426
71	0xbe7335fe	-0.23751065
72	0xbed1ce96	-0.40977925
73	0xbe899a4e	-0.26875538
74	0xbe923e5c	-0.285632

gating_networks.0.filters.0.bias f4 [25]
0	0x3da6a8c8	0.08137661
1	0xbf083517	-0.5320601
2	0xbeeb93ce	-0.46011204
3	0x3db8f740	0.09031534
4	0x3ea81d38	0.32834792
5	0xbed868ca	-0.42267448
6	0xbd563800	-0.0522995
7	0xbe017742	-0.1264315
8	0x3de26060	0.11053538
9	0x3d3a9880	0.04555559
10	0xbee68cab	-0.45029196
11	0x3e52b0c0	0.20575237
12	0xbe84af64	-0.25915062
13	0x3e02f890	0.12790132
14	0x3e942b00	0.28939056
15	0xbe891d5a	-0.26780206
16	0x3e0a18dc	0.13486046
17	0x3ef1cad0	0.47225046
18	0x3eea1d74	0.45725596
19	0x3f0a16ca	0.53941023
20	0xbec91070	-0.39270353
21	0x3ea597fc	0.32342517
22	0xbc9d07c0	-0.019168735
23	0xbeb45fce	-0.35229343
24	0x3ebccc42	0.36874586

gating_networks.0.filters.1.weight f4 [25, 1, 4, 1]
0	0xbe14269c	-0.14467853
1	0x3ebddd04	0.37082684
2	0xbdaa5fb8	-0.08319038
3	0x3e9a0a06	0.30085772
4	0x3ee49ef8	0.44652534
5	0x3ec3174c	0.38103712
6	0x3e8147da	0.2525013
7	0xbe833104	-0.25623333
8	0xbe869168	-0.2628281
9	0xbe12204c	-0.14270133
10	0xbe58b1fc	-0.21161646
11	0xbea5583a	-0.32293874
12	0xbe88f3ea	-0.26748592
13	0xbe6ed14c	-0.23322028
14	0xbecbc530	-0.3979888
15	0xbecfdf36	-0.40599984
16	0xbee55d6e	-0.44797844
17	0x3ec28768	0.37993932
18	0xbe5e64ec	-0.21718186
19	0xbe5ee9cc	-0.21768874
20	0xba235c00	-0.00062316656
21	0xbe501a88	-0.20322621
22	0xbbf8b380	-0.0075897574
23	0x3eb50944	0.35358632
24	0xbef1f0e4	-0.47254097
25	0x3ee7665e	0.45195287
26	0x3c036640	0.008019984
27	0x3ecf5f68	0.40502477
28	0xbe141200	-0.14459991
29	0xbec5a5b6	-0.3860299
30	0x3ebd9586	0.3702814
31	0x3d153710	0.036429465
32	0xbec67d50	-0.3876748
33	0x3d6e2a60	0.05814588
34	0xbdb4d928	-0.08830482
35	0x3e9b2bd6	0.30306882
36	0xbec979ee	-0.39350837
37	0xbee65d52	-0.44993073
38	0x3efb17b8	0.49041533
39	0x3cf12640	0.029437184
40	0x3db6b8c8	0.08921963
41	0xbe85e82e	-0.26153702
42	0x3e432bac	0.19059628
43	0x3c889ea0	0.0166772
44	0xbef58d0e	-0.4795918
45	0xbbf90380	-0.007599294
46	0x3ef2e214	0.4743811
47	0xbefe2bea	-0.4964288
48	0x3e91fd4c	0.28513563
49	0x3e28567c	0.16439241
50	0x3eb7c00e	0.35888714
51	0xbec1e1dc	-0.3786763
52	0xbed1abb2	-0.40951306
53	0x3ed4b726	0.4154598
54	0x3ee5a492	0.4485212
55	0xbeb964de	-0.36209768
56	0x3eedac06	0.46420306
57	0x3ec39806	0.38201922
58	0xbec575e4	-0.38566506
59	0x3efa2e6e	0.48863548
60	0x3ee84a1a	0.45369035
61	0x3ecd1652	0.40056092
62	0x3e50ba14	0.20383483
63	0xbec97970	-0.39350462
64	0x3e70c03c	0.23510832
65	0xbdfc7f58	-0.123289764
66	0xbe69d428	-0.22834837
67	0x3e48b11c	0.19598812
68	0x3d6a8180	0.057252407
69	0xbe77d4b0	-0.24202228
70	0xbe6005a0	-0.21877146
71	0xbe4db050	-0.20086789
72	0xbe9e1454	-0.30874884
73	0x3ea58e40	0.3233509
74	0xbe24c53c	-0.16090864
75	0xbcf280a0	-0.029602349
76	0xbea42f72	-0.32067448
77	0xbe77f128	-0.24213088
78	0xbeff26d4	-0.4983431
79	0x3eb178aa	0.34662372
80	0x3eda964a	0.42692786
81	0x3e032394	0.1280654
82	0x3ef2395c	0.47309387
83	0xbed7ad50	-0.42124414
84	0x3eb42bb2	0.35189587
85	0x3d9fdca0	0.07805753
86	0x3dddb828	0.10826141
87	0x3e0a7ed0	0.13524938
88	0x3d13f380	0.03612089
89	0x3eb0a022	0.34497172
90	0xbd8e6ef8	-0.06954759
91	0xbea7c5f6	-0.3276822
92	0x3eb3faf2	0.35152394
93	0x3ef9b09a	0.4876755
94	0xbecaf826	-0.39642447
95	0xbd31c8c0	-0.04340434
96	0xbd34bc50	-0.0441249
97	0xbe8ac8b0	-0.27106237
98	0x3dfbdd50	0.122980714
99	0xbe5e3588	-0.21700108

gating_networks.0.filters.1.bias f4 [25]
0	0x3e99c236	0.30030984
1	0xbde1e4c8	-0.11029965
2	0x3ee673f8	0.45010352
3	0xbefe2fbe	-0.496458
4	0xbe64143c	-0.22273344
5	0x3e1268fc	0.14297861
6	0x3d72af90	0.05924946
7	0x3e65c464	0.22438198
8	0x3efd071c	0.49419487
9	0xbebedefa	-0.37279493
10	0xbde310f0	-0.11087215
11	0x3ecf4aee	0.40486854
12	0xbeafec4c	-0.34359968
13	0x3ede09a2	0.43366724
14	0x3e664b88	0.2248975
15	0x3c2cc3c0	0.010544717
16	0x3e6ea3e4	0.23304707
17	0xbe2b4ad4	-0.16727763
18	0xbe9f3a4e	-0.3109917
19	0xbec887ce	-0.3916611
20	0xbe6286f0	-0.22121787
21	0xbd3a1940	-0.045434237
22	0x3d71c730	0.05902785
23	0xbe387074	-0.18011647
24	0xbe64df38	-0.22350776

gating_networks.0.filters.2.weight f4 [25, 1, 5, 1]
0	0xbea7e899	-0.32794645
1	0x3dd6f9a8	0.10496837
2	0xbeca6aff	-0.39534757
3	0xbea8b940	-0.32953835
4	0xbe0480a6	-0.129397
5	0x3e1f2e1c	0.15544933
6	0xbeb65964	-0.35615075
7	0xbd3b3788	-0.045707256
8	0xbecb3009	-0.39685085
9	0xbe8e19ff	-0.27754208
10	0xbe65d87b	-0.22445862
11	0x3dc2e450	0.095162034
12	0xbde55524	-0.1119788
13	0xbe85c78e	-0.2612881
14	0xbe942e1a	-0.28941423
15	0xbe6a0c93	-0.22856359
16	0xbdece510	-0.11567128
17	0xbda54aa8	-0.0807088
18	0x3e5397b4	0.20663339
19	0x3e1db53c	0.15401167
20	0xbe5c5a1c	-0.21518749
21	0x3eb42030	0.35180807
22	0x3ed619c8	0.41816545
23	0xbd440438	-0.047855586
24	0xbc116cc0	-0.008876026
25	0x3cf0d990	0.029400617
26	0x3dc48188	0.095950186
27	0x3e7d0338	0.24708259
28	0x3c320e00	0.010867596
29	0x3eb23516	0.34806126
30	0x3ed0d62e	0.40788406
31	0x3d91bc38	0.07115978
32	0xbe84f444	-0.2596761
33	0xbe0784bc	-0.13234228
34	0x3c8f4600	0.017489433
35	0xbeb04227	-0.3442547
36	0xbece4ec0	-0.40294456
37	0xbeb4e15b	-0.35328183
38	0x3e77aab8	0.24186218
39	0x3ec7377c	0.3890952
40	0x3edd017e	0.431652
41	0xbedde33d	-0.43337432
42	0xbe617f20	-0.2202115
43	0xbeaad02b	-0.33361945
44	0xbed3b723	-0.4135066
45	0x3ec4c4ac	0.384313
46	0x3e903a5e	0.2816953
47	0xbdaffe6c	-0.08593449
48	0x3e944320	0.28957462
49	0xbec0a178	-0.3762319
50	0xbd972024	-0.07379177
51	0xbdc8ecf8	-0.09810823
52	0xbdc03b84	-0.09386352
53	0x3dbd0f98	0.0923149
54	0xbd266748	-0.04062584
55	0xbe645184	-0.2229672
56	0x3e752380	0.23939323
57	0xbd14a590	-0.036290705
58	0x3ea5a8fa	0.3235548
59	0xbb85ad40	-0.004079491
60	0xbedb6b72	-0.42855412
61	0xbe0e6a1c	-0.13907665
62	0x3e9932d6	0.29921597
63	0x3e4b828c	0.19874018
64	0xbe6d85c6	-0.23195562
65	0xbe3d4e14	-0.18486816
66	0x3dec9730	0.11552274
67	0xbedf8794	-0.43658125
68	0x3ebcfa8c	0.36909902
69	0x3eb201fa	0.34767133
70	0x3dcb0518	0.09913081
71	0x3ea05d30	0.31321096
72	0x3c55a8e0	0.013040751
73	0x3e8a703e	0.2703876
74	0x3ca36110	0.019943744
75	0xbdf33c6c	-0.11876759
76	0x3ed98226	0.42482108
77	0xbee1f480	-0.4413185
78	0xbed07f6b	-0.40722212
79	0xbe5c347d	-0.21504398
80	0x3eb48a6e	0.35261863
81	0xbdd1e04c	-0.10247859
82	0xbe5aacdf	-0.21355008
83	0x3d0549b8	0.032541007
84	0x3ea7ec32	0.3279739
85	0xbe2c35d4	-0.16817409
86	0x3ddfffa8	0.109374344
87	0xbe9b72ce	-0.30361027
88	0xbe695c14	-0.22789031
89	0x3ea2ee52	0.3182245
90	0x3eb19844	0.34686482
91	0x3e719118	0.23590505
92	0x3ec76cf4	0.38950312
93	0xbed977cc	-0.4247421
94	0x3e04c89c	0.12967151
95	0x3bdc44c0	0.006722063
96	0x3eb89132	0.36048275
97	0x3c9feef0	0.019523114
98	0xbd8933b0	-0.06699312
99	0x3e4df7b8	0.20114028
100	0xbe3c68f0	-0.18399405
101	0x3c95c850	0.018283993
102	0xbde6b3fc	-0.11264798
103	0xbe33ad0a	-0.17546478
104	0x3ec67e6e	0.38768333
105	0xbcb519a0	-0.022106946
106	0xbe3119f0	-0.1729505
107	0xbe91572a	-0.28386813
108	0xbd7e4fb0	-0.062087715
109	0x3ea45e82	0.32103354
110	0x3e1a923c	0.15094846
111	0xbdc66ac0	-0.0968833
112	0xbe3506f2	-0.1767843
113	0xbd123240	-0.035692453
114	0x3ec25e7c	0.3796271
115	0xbdbf735c	-0.09348175
116	0xbe1b873a	-0.15188304
117	0xbd1ef5b0	-0.038808525
118	0x3edc9728	0.43084073
119	0xbed16684	-0.40898526
120	0xbed1b44a	-0.40957862
121	0x3e91bb30	0.28463125
122	0xbe03d124	-0.1287275
123	0x3c19c020	0.009384185
124	0xbdcd89dc	-0.1003606

gating_networks.0.filters.2.bias f4 [25]
0	0xbec36b5e	-0.38167852
1	0xbe23ad06	-0.15983972
2	0xbec7246c	-0.38894975
3	0x3e572898	0.21011579
4	0xbede1364	-0.4337417
5	0x3e32d95c	0.17465729
6	0xbca36050	-0.019943386
7	0x3e9d8fb0	0.30773687
8	0x3d578100	0.05261326
9	0x3ea00124	0.3125087
10	0xbec63f78	-0.38720298
11	0x3e913f92	0.28368813
12	0x3d833890	0.06407273
13	0xbe694e97	-0.22783886
14	0x3edd707a	0.43249875
15	0xbe132f76	-0.14373574
16	0x3dda7698	0.10667151
17	0xbe0ead0a	-0.13933197
18	0x3ea9cc96	0.331639
19	0xbeacd0e4	-0.3375312
20	0xbe90cb02	-0.28279883
21	0xbd021770	-0.031760633
22	0x3d8b2880	0.06794834
23	0x3e78e9b0	0.24307895
24	0xbeab7950	-0.33490992

gating_networks.0.fc_layer.weight f4 [3, 75]
0	0x3da0cb92	0.07851328
1	0x3dafa656	0.08576648
2	0xbd62a478	-0.05533263
3	0xbc2b9248	-0.010471888
4	0x3d808470	0.062752604
5	0x3cb0a8a0	0.021564782
6	0x3d03ec74	0.03220792
7	0x3de760b8	0.112977445
8	0x3ca8efe8	0.020622209
9	0x3d881aba	0.06645723
10	0xbd576a98	-0.05259189
11	0xbd9d0693	-0.076672696
12	0x3ceaeb88	0.028676763
13	0xbdda5a6e	-0.10661779
14	0x3d9fd554	0.07804361
15	0x3da251f6	0.07925789
16	0xbd9df931	-0.07713545
17	0xbd356166	-0.04428234
18	0x3c840808	0.01611711
19	0x3bb76060	0.0055962056
20	0x3c0b4100	0.008499384
21	0xbd982760	-0.07429385
22	0xbcb11d04	-0.021620281
23	0x3dd587f0	0.10426319
24	0x3da3412e	0.079714164
25	0x3d0830ac	0.033249542
26	0x3dea0402	0.11426546
27	0x3dbdf0f6	0.09274475
28	0x3dcd5374	0.10025683
29	0xbd7945e4	-0.06085767
30	0x3d78a4a8	0.060703903
31	0xbd658b16	-0.056040846
32	0x3d0041c0	0.031312704
33	0xbdd3ed46	-0.10347991
34	0xbdea795c	-0.11448929
35	0xbd62e074	-0.055389836
36	0xbd23edf6	-0.04002186
37	0xbd057f26	-0.03259196
38	0xbcc5acb8	-0.02413021
39	0xbdda4105	-0.10656933
40	0x3d6ff8e4	0.05858697
41	0x3d047e04	0.03234674
42	0xbdb19290	-0.08670533
43	0x3dda4ef2	0.10659589
44	0xbdec5e13	-0.11541381
45	0xbd51eb9a	-0.051250078
46	0x3dce7d20	0.100824594
47	0x3ddff84c	0.10936031
48	0xbd19f110	-0.03758341
49	0x3de2b72a	0.11070092
50	0x3db9d440	0.090736866
51	0x3dac6910	0.084184766
52	0xbcdf44d0	-0.027254492
53	0xbd520bec	-0.0512809
54	0xbd5a501c	-0.053299055
55	0xbda47e3d	-0.080318905
56	0xbdbd7ed1	-0.09252704
57	0x3da248ba	0.07924028
58	0xbd366954	-0.044534042
59	0x3ca33510	0.019922763
60	0xbdb24e2a	-0.08706315
61	0xbcd38a0c	-0.025822662
62	0x3de59aa8	0.11211139
63	0x3d7fc944	0.0624478
64	0x3d892788	0.06696993
65	0xbd05676c	-0.032569334
66	0x3d5cb858	0.05388674
67	0x3d573580	0.052541256
68	0x3d441dd0	0.047879994
69	0xbceadb08	-0.028668895
70	0x3dddbe10	0.10827267
71	0xbdd75a9f	-0.105153315
72	0xbcedec2c	-0.02904328
73	0xbdddbe36	-0.108272955
74	0xbbfd2fc0	-0.0077266395
75	0x3d50d4a0	0.050984025
76	0x3d33b980	0.04387808
77	0x3c509c10	0.012732521
78	0x3dccf296	0.10007207
79	0xbde75bb5	-0.112967886
80	0x3cd220b8	0.025650367
81	0xbd295174	-0.041337445
82	0xbdcde5a4	-0.10053566
83	0x3c48b0a0	0.012249142
84	0xbdae188e	-0.08500777
85	0x3da233ac	0.07920012
86	0x3d52796c	0.05138533
87	0xbd8f2417	-0.069893055
88	0xbdc7d594	-0.09757534
89	0xbd98e3aa	-0.074652985
90	0xbdbe2b50	-0.09285605
91	0xbda428c5	-0.08015589
92	0x3dbe7c06	0.09300999
93	0x3d9fe52e	0.078073844
94	0xbdb2428f	-0.08704101
95	0x3d20d88c	0.039269015
96	0x3de135ee	0.109966144
97	0x3c82bd50	0.015959412
98	0x3d9b9dee	0.07598482
99	0x3d80c446	0.06287436
100	0xbde1a390	-0.11017525
101	0x3db4b7e4	0.08824137
102	0xbd9b2ce0	-0.075769186
103	0x3c95f4b8	0.018305168
104	0x3ddd61f4	0.10809699
105	0x3c9f1178	0.01941751
106	0x3d9ef340	0.0776124
107	0x3db96168	0.09051782
108	0x3dac9260	0.08426356
109	0xbd81febc	-0.06347415
110	0xbdde1776	-0.108443186
111	0x3dd7cc4a	0.10537012
112	0xbd4df656	-0.050283752
113	0x3d933f4c	0.07189807
114	0x3de5c294	0.112187535
115	0xbd85259e	-0.065013155
116	0xbd786ca6	-0.06065049
117	0x3d988e9c	0.074490756
118	0x3dca9e82	0.09893514
119	0xbd1db8c2	-0.038506277
120	0x3de5b0f8	0.11215395
121	0x3c80a9f8	0.015706047
122	0xbda9296f	-0.08259856
123	0x3da85714	0.08219734
124	0xbda7bbfa	-0.081901506
125	0x3db8b0bc	0.090180844
126	0x3d99266c	0.074780315
127	0x3d292680	0.041296482
128	0xbd68f06a	-0.0568699
129	0xbda892a0	-0.082310915
130	0xbdcf29f9	-0.101154275
131	0xbdae71ce	-0.085178
132	0x3c63aa60	0.013895601
133	0x3d2dd664	0.042440787
134	0x3cbc0cb8	0.022955284
135	0xbd023564	-0.0317892
136	0xbc8f9d1c	-0.01753097
137	0xbda8b2da	-0.08237238
138	0xbd28ffee	-0.0412597
139	0xbd086a0e	-0.033304267
140	0xbdb58dc0	-0.08864927
141	0x3db02bee	0.08602129
142	0xbd68d839	-0.05684683
143	0x3cc11538	0.023569688
144	0xbdd3de4e	-0.10345136
145	0x3c222340	0.0098961
146	0x3d8ccae2	0.06874634
147	0x3d5049d8	0.050851673
148	0xbd8538f2	-0.06505002
149	0xbd88fb3c	-0.06688544
150	0x3d92a488	0.07160288
151	0xbc559208	-0.013035305
152	0xbd74058b	-0.0595756
153	0xbdabc255	-0.08386675
154	0x3a026880	0.0004974678
155	0x3de34c0c	0.11098489
156	0x3cc13268	0.023583606
157	0xbcc89cd4	-0.024488844
158	0xbd9d7b20	-0.076895
159	0xbd7bb433	-0.06145115
160	0x3dcf66c0	0.1012702
161	0xbd212ca4	-0.039349213
162	0x3d0e56a8	0.03475061
163	0x3d4ade88	0.04952863
164	0xb944f200	-0.00018782169
165	0x3da22ca8	0.07918674
166	0xbc92f554	-0.017939247
167	0xbde220a9	-0.11041386
168	0x3c7b3590	0.0153325945
169	0xbdaffd52	-0.08593239
170	0xbd8e3fde	-0.069457754
171	0xbde7ee46	-0.11324744
172	0x3da950f6	0.08267395
173	0xbde96531	-0.11396254
174	0xbceebe38	-0.029143438
175	0x3d973588	0.07383257
176	0x3c595500	0.0132648945
177	0xbda57d06	-0.08080487
178	0x3dd63c02	0.10460664
179	0xbd017f8e	-0.031615786
180	0x3d536214	0.051607206
181	0xbdbbe5d4	-0.091746956
182	0xbd1d6d1a	-0.038434125
183	0xbda4c198	-0.080447376
184	0xbd4bbe6e	-0.049742155
185	0xbd00ac3e	-0.031414263
186	0x3dd23382	0.102637306
187	0x3da0f6aa	0.078595474
188	0xbd7443ab	-0.059634846
189	0xbd76bd1b	-0.06023894
190	0xbc7516f8	-0.014959089
191	0x39e0db00	0.00042887777
192	0x3d1b32a4	0.03789009
193	0xbc85e75c	-0.016345672
194	0xbd72a735	-0.059241492
195	0xbde2ddf9	-0.11077494
196	0x3b933c50	0.004493274
197	0x3d58c170	0.05291885
198	0x3ce4a768	0.027911857
199	0xbdec060d	-0.115245916
200	0x3c53bd20	0.012923509
201	0x3dd045f0	0.101695895
202	0xbd63ce1b	-0.05561648
203	0xbd726164	-0.05917491
204	0x3ddcea36	0.1078686
205	0x3de6350c	0.11240587
206	0xbdb9819f	-0.090579264
207	0xbd2739d8	-0.04082665
208	0x3cd8ee58	0.026480839
209	0x3d249a80	0.040186405
210	0xbcc1c020	-0.023651183
211	0x3d4d0654	0.050054863
212	0x3daf3766	0.08555488
213	0x3dd56d86	0.104212806
214	0x3de1cb30	0.11025083
215	0xbd67c87f	-0.056587692
216	0x3db4f2ae	0.0883535
217	0x3d1dcc44	0.03852488
218	0x3d3b05e8	0.04565993
219	0xbd2fb6e4	-0.042899027
220	0xbcb7f898	-0.022457406
221	0xbd9c3b68	-0.07628518
222	0xbde08a0e	-0.10963832
223	0xbdac26fa	-0.08405872
224	0x3d446c40	0.047954798

gating_networks.0.fc_layer.bias f4 [3]
0	0xbdda3385	-0.10654358
1	0x3d9c6dce	0.07638131
2	0xbc055230	-0.008137271

gating_networks.1.filters.0.weight f4 [25, 1, 3, 1]
0	0xbeaafd2e	-0.33396286
1	0x3e863a1c	0.2621621
2	0x3e089478	0.13337886
3	0xbe495372	-0.19660738
4	0xbe362550	-0.17787671
5	0x3e9fe424	0.31228745
6	0xbeb438e8	-0.35199666
7	0xbed44126	-0.41455954
8	0xbe0b7d82	-0.13622096
9	0x3deedbf8	0.116630495
10	0x3eaf5286	0.34242648
11	0xbf04b37d	-0.5183638
12	0x3efc7a6c	0.4931215
13	0xbf0adcb9	-0.54243046
14	0xbed75a74	-0.42061198
15	0x3eb99e6a	0.36253673
16	0xbe941550	-0.2892251
17	0xbdbb5d10	-0.0914861
18	0xbbf42980	-0.0074512362
19	0xbed2aa8a	-0.41145736
20	0x3e757fe4	0.23974568
21	0xbeb011de	-0.34388632
22	0x3e32bd9c	0.17455143
23	0xbe5fda04	-0.2186051
24	0x3dcafcf0	0.09911525
25	0xbd644160	-0.05572641
26	0x3dd71f58	0.10504025
27	0xbeb8f49f	-0.3612413
28	0x3e37a2c0	0.17933178
29	0x3e3eb770	0.18624663
30	0xbe5b8504	-0.2143746
31	0x3e708618	0.23488653
32	0xbdc1ce7c	-0.09463212
33	0x3eeaa2b4	0.45827258
34	0x3ec40ec8	0.38292527
35	0xbd92dd70	-0.07171142
36	0xbdd21a34	-0.10258904
37	0xbeb21e24	-0.3478862
38	0xbde07180	-0.109591484
39	0xbd9f4de4	-0.07778528
40	0x3e9af814	0.30267394
41	0x3e0079f4	0.12546521
42	0x3e693348	0.22773468
43	0xbe61ac16	-0.22038302
44	0x3cbfcd20	0.02341324
45	0x3ee6bc04	0.4506532
46	0xbeda1e54	-0.42601264
47	0x3c917400	0.017755508
48	0xbf00829e	-0.50199306
49	0x3b32af00	0.0027264953
50	0x3f09e784	0.5386889
51	0x3e6d12c0	0.23151684
52	0x3e99b198	0.30018306
53	0x3f03ee48	0.51535463
54	0x3d77c6b0	0.060492218
55	0x3eb7cb86	0.35897464
56	0x3e8ce896	0.275212
57	0xbf051835	-0.5199006
58	0x3e5b372c	0.21407765
59	0x3e9f0188	0.31055856
60	0x3d4f49e0	0.050607562
61	0xbedb7823	-0.42865095
62	0xbecba4d1	-0.39774182
63	0xbde7ea44	-0.113239795
64	0x3edd3420	0.4320383
65	0xbf127f68	-0.57225657
66	0x3df4fdd0	0.119624734
67	0xbe229fee	-0.15881321
68	0x3e47bd94	0.19505912
69	0xbed0ad41	-0.40757182
70	0x3ee59340	0.44838905
71	0xbf1056f8	-0.56382704
72	0x3d1bbb40	0.038020372
73	0x3ed89e24	0.42308152
74	0x3c8a0f80	0.016853094

gating_networks.1.filters.0.bias f4 [25]
0	0xbf12a1bd	-0.57278043
1	0x3eab6f2c	0.33483255
2	0x3ea980ce	0.33106083
3	0x3e93e934	0.28888857
4	0xbd84ca50	-0.064839005
5	0xbec6b8ce	-0.3881287
6	0xbec2bf73	-0.3803669
7	0x3e90a4a2	0.28250605
8	0x3efd1e30	0.49437094
9	0xbd8198b0	-0.06327951
10	0xbe919fd5	-0.28442255
11	0xbd606540	-0.05478406
12	0x3eedbab0	0.46431494
13	0xbed39b24	-0.413293
14	0xbeca39ef	-0.39497325
15	0x3f04a118	0.5180831
16	0xbeb8c5e0	-0.36088467
17	0xbea4b0ab	-0.32166037
18	0xbeb5c058	-0.3549831
19	0xbecc2f74	-0.39879954
20	0x3eabf932	0.33588558
21	0x3ec510ba	0.38489324
22	0x3eba7e0a	0.36424285
23	0x3eb71d86	0.35764712
24	0x3e31158c	0.17293376

gating_networks.1.filters.1.weight f4 [25, 1, 4, 1]
0	0x3e0fbccc	0.14036864
1	0xbecf5402	-0.4049378
2	0xbec73e3c	-0.3891467
3	0xbe46d2d4	-0.19416362
4	0x3efbc514	0.49173796
5	0x3cb8c020	0.02255255
6	0xbeeaf8ca	-0.45892936
7	0xbef1763c	-0.47160518
8	0x3ec862d8	0.39137912
9	0xbc54fa00	-0.012999058
10	0x3e7e5b70	0.24839568
11	0xbb5dc100	-0.003383696
12	0xbec3ee38	-0.38267684
13	0xbef6452e	-0.48099655
14	0xbef22f62	-0.47301775
15	0x3e8ffb38	0.28121352
16	0x3ef52ef2	0.4788738
17	0xbe78ad2c	-0.2428481
18	0xbee011a0	-0.43763447
19	0xbe3e2778	-0.18569744
20	0xbed519f2	-0.41621357
21	0x3e9a66a2	0.30156428
22	0x3edabb84	0.42721188
23	0xbbcba080	-0.0062142015
24	0xbca71540	-0.020395875
25	0xbd8dae00	-0.069179535
26	0xbe45ed18	-0.19328725
27	0xbea33046	-0.31872767
28	0x3e39346c	0.18086404
29	0xbec36538	-0.3816316
30	0xbede36b2	-0.43401104
31	0x3debf6b8	0.11521667
32	0x3eab577c	0.33465183
33	0xbeb758ae	-0.35809845
34	0x3e692908	0.22769558
35	0xbe12f39c	-0.14350742
36	0x3d20f090	0.03929192
37	0xbd649120	-0.055802464
38	0xbe2fe568	-0.17177355
39	0x3e8e6320	0.2781
40	0xbdfd8070	-0.12378013
41	0xbd415120	-0.047196507
42	0x3ef57f46	0.47948664
43	0x3ed10e60	0.4083128
44	0xbe080b10	-0.1328547
45	0xbeec39ae	-0.46137756
46	0xbef3cf18	-0.47618937
47	0x3e5df410	0.21675134
48	0x3eaf968e	0.34294552
49	0x3ed9f52a	0.42569858
50	0x3ec0b2f6	0.37636536
51	0xbd2dfa90	-0.042475283
52	0xbee469f2	-0.4461208
53	0xbeccaaac	-0.39973962
54	0xbeca333e	-0.3949222
55	0xbe49b1e8	-0.19696772
56	0x3e5e8e30	0.21733928
57	0x3ec93614	0.3929907
58	0xbecf211a	-0.40454942
59	0x3e22c430	0.15895152
60	0xbe1a2f38	-0.15057075
61	0x3dc3e7c8	0.09565693
62	0x3ecc1c34	0.39865267
63	0x3eba705a	0.36413842
64	0xbe787004	-0.2426148
65	0x3ead07be	0.3379497
66	0x3e8735a6	0.26408118
67	0xbe5284e0	-0.205585
68	0xbd7a7a00	-0.061151505
69	0xbeceb8d4	-0.40375388
70	0xbedf8276	-0.4365422
71	0x3e0c96a8	0.13729346
72	0x3d823f80	0.06359768
73	0xbe2a306c	-0.16620034
74	0x3e8b7764	0.27239525
75	0xbe1f9a20	-0.15586138
76	0xbe0e74a8	-0.13911688
77	0xbea06726	-0.31328696
78	0xbdb58528	-0.08863288
79	0x3da09730	0.07841337
80	0xbe8d8a80	-0.2764473
81	0xbe7c4484	-0.24635512
82	0x3e0d0d10	0.13774514
83	0x3c99d880	0.018779993
84	0x3dce1f60	0.10064578
85	0x3efe4e54	0.49669135
86	0xbe9c4b46	-0.3052618
87	0xbe04e964	-0.12979656
88	0xbefc3d74	-0.49265635
89	0x3eb44f98	0.35216975
90	0xbeee9c90	-0.46603823
91	0x3e679090	0.2261374
92	0xbe9a25f0	-0.3010707
93	0xbd35b190	-0.04435879
94	0xbcac3b20	-0.021024287
95	0xbe94f60c	-0.2909397
96	0xbe1b9c54	-0.15196353
97	0xbea6a8b2	-0.3255058
98	0x3ec6be24	0.3881694
99	0xbe4be3b0	-0.19911075

gating_networks.1.filters.1.bias f4 [25]
0	0xbe7d4554	-0.24733478
1	0x3e8389f4	0.25691187
2	0x3eda4e02	0.4263764
3	0x3e9dfdca	0.30857688
4	0xbef86884	-0.4851724
5	0x3e91b522	0.28458506
6	0xbc61b640	-0.013776362
7	0x3de25060	0.110504866
8	0x3eec2490	0.46121645
9	0xbe28f108	-0.16498196
10	0x3dcc5be8	0.09978467
11	0x3ea8aee6	0.32945937
12	0xbe0e6860	-0.13907003
13	0x3ef90cee	0.48642677
14	0xbeb204c6	-0.34769267
15	0x3eff984e	0.49920887
16	0xbe4a98a4	-0.1978479
17	0xbe15146c	-0.14558572
18	0xbe3bfc08	-0.18357861
19	0x3e42b7ac	0.19015378
20	0xbe9126e0	-0.28349972
21	0xbbe27d00	-0.006911874
22	0x3ec1b462	0.37832934
23	0x3de6e788	0.1127463
24	0xbef1eeb6	-0.47252434

gating_networks.1.filters.2.weight f4 [25, 1, 5, 1]
0	0x3ed2b8b4	0.41156542
1	0xbe2b79ca	-0.16745678
2	0x3da4b460	0.08042216
3	0xbe990668	-0.298877
4	0x3e40131c	0.1875729
5	0xbe7243b5	-0.2365864
6	0x3e9f0650	0.31059504
7	0xbdf6c250	-0.12048781
8	0xbe5e7280	-0.21723366
9	0x3b9aee80	0.0047281384
10	0x3e143090	0.1447165
11	0x3e6234a4	0.22090393
12	0xbe07deea	-0.13268629
13	0xbe30b9c0	-0.17258358
14	0xbe9bea66	-0.3045227
15	0xbd072b08	-0.033000022
16	0xbea882a4	-0.3291217
17	0xbe47be80	-0.19506264
18	0xbd2f0cc0	-0.04273677
19	0xbd0920b0	-0.03347844
20	0xbee04e4b	-0.43809733
21	0xbec6e3be	-0.38845628
22	0xbe8132e0	-0.25234127
23	0xbe5b20cc	-0.2139923
24	0x3da6fc70	0.081536174
25	0xbc4e27e0	-0.012582749
26	0xbe959594	-0.29215682
27	0xbecd45c3	-0.40092286
28	0x3e0a5384	0.13508421
29	0xbe727a4f	-0.2367947
30	0x3eacc018	0.33740306
31	0x3e1e2bf0	0.15446448
32	0xbed0534e	-0.40688556
33	0x3e807fa8	0.25097394
34	0x3ead12e0	0.33803463
35	0x3d8d1868	0.06889421
36	0x3eb4f098	0.35339808
37	0x3e8c99e0	0.27461147
38	0x3dd909c8	0.10597569
39	0x3de86e00	0.11349106
40	0xbe909f72	-0.28246647
41	0xbe97b8d8	-0.29633212
42	0xbce5dc90	-0.028059274
43	0x3dc08728	0.09400779
44	0xbe4e6eb3	-0.20159416
45	0xbe4752c6	-0.1946517
46	0x3ecad252	0.39613587
47	0xbda42804	-0.08015445
48	0x3ea5c140	0.32374
49	0x3e4ccf44	0.2000094
50	0xbec56f48	-0.38561463
51	0xbecadb02	-0.39620215
52	0x3e2fd3f8	0.17170703
53	0xbd80bef0	-0.062864184
54	0xbeda72a9	-0.42665604
55	0x3e892da0	0.26792622
56	0x3e233f94	0.15942222
57	0xbea720f9	-0.32642344
58	0xbd5f23c8	-0.054477483
59	0xbcb38490	-0.021913797
60	0x3e0003f8	0.12501514
61	0xbea2059a	-0.316449
62	0xbe846d34	-0.25864565
63	0xbec48527	-0.38382837
64	0xbe81e332	-0.2536865
65	0x3dc41308	0.095739424
66	0x3ea351ca	0.31898338
67	0x3e881e5a	0.26585656
68	0x3e7910b0	0.24322772
69	0x3ecf99ee	0.40547127
70	0x3e576130	0.21033168
71	0xbe9fd94c	-0.31220472
72	0xbe13898c	-0.14407939
73	0x3e314b30	0.17313838
74	0xbe252b66	-0.16129836
75	0x3e905f10	0.28197527
76	0xbe929aef	-0.2863383
77	0xbece7445	-0.40323082
78	0x3ec95c4a	0.39328223
79	0x3ea57bea	0.323211
80	0x3d74f9f0	0.05980867
81	0xbea48f7a	-0.32140714
82	0x3c00bb00	0.007857084
83	0x3c876330	0.016526788
84	0x3ed7f3bc	0.42178142
85	0xbe891df6	-0.2678067
86	0x3dd6e3b8	0.10492653
87	0xbeabe37c	-0.33571994
88	0xbe867b24	-0.26265824
89	0xbec49ab4	-0.3839928
90	0x3e5d3158	0.21600854
91	0x3ec09d44	0.37619984
92	0x3eac52fc	0.33657062
93	0xbe694dc1	-0.22783567
94	0xbe071e28	-0.13195097
95	0xbec0f342	-0.3768559
96	0x3c76f940	0.015074074
97	0x3e170ed4	0.1475175
98	0x3e282870	0.16421676
99	0x3e979da0	0.29612446
100	0x3d38c1e0	0.04510677
101	0x3e64b364	0.22334057
102	0x3d8dd3b0	0.06925142
103	0xbee0e456	-0.43924206
104	0x3ebc8d2c	0.36826456
105	0xbe98fe46	-0.29881495
106	0x3e3bd500	0.18342972
107	0xbdb11cc8	-0.08648068
108	0xbeaa1d43	-0.3322545
109	0xbebef63b	-0.37297234
110	0x3e3575a8	0.17720664
111	0xbede6491	-0.434361
112	0x3e3911e8	0.18073237
113	0xbec717f8	-0.38885474
114	0xbe24002a	-0.16015688
115	0x3dcfe130	0.10150373
116	0xbe5cbf93	-0.21557455
117	0x3e8cbea4	0.27489197
118	0x3e8d9e60	0.27659893
119	0xbeaa8d8a	-0.3331111
120	0x3e3cd0e8	0.18439066
121	0x3d9d2f80	0.076750755
122	0xbe570048	-0.20996201
123	0x3d8e5538	0.06949848
124	0x3ed8ccec	0.42343843

gating_networks.1.filters.2.bias f4 [25]
0	0x3cd2d510	0.025736362
1	0xbed28a61	-0.411212
2	0xbe5e79be	-0.21726128
3	0x3db77d10	0.08959401
4	0x3e889164	0.26673424
5	0x3ece577c	0.4030112
6	0x3ce42bf0	0.027852982
7	0x3e94d930	0.2907195
8	0xbec0872a	-0.37603122
9	0xbe8ad9f8	-0.27119422
10	0x3ebe02ba	0.37111455
11	0xbed137d3	-0.40862903
12	0x3ea27de4	0.31736672
13	0x3e4c2b9c	0.1993851
14	0x3e538c58	0.20659006
15	0xbe9f0724	-0.31060135
16	0x3e53a4d4	0.20668346
17	0x3e62ebd0	0.22160268
18	0x3ec47972	0.38373905
19	0xbe9c1c22	-0.30490214
20	0xbe9c5ebb	-0.30541024
21	0xbddfe680	-0.10932636
22	0x3edb1ba6	0.42794532
23	0x3e8e7f34	0.27831423
24	0x3e4e13c8	0.20124733

gating_networks.1.fc_layer.weight f4 [3, 75]
0	0x3d85dd7c	0.065363854
1	0xbc7fb9a0	-0.015608221
2	0xbd3b3536	-0.045705043
3	0x3d45d62c	0.048299953
4	0x3dc6ba5a	0.097035125
5	0x3dded074	0.10879603
6	0x3d146134	0.036225513
7	0x3ca09b98	0.019605443
8	0x3dbb0084	0.09130958
9	0xbd93f758	-0.072249115
10	0x3cdedb10	0.027204067
11	0xbdb30504	-0.08741191
12	0xbde6eb4e	-0.112753496
13	0xbca3d664	-0.01999969
14	0x3c792410	0.015206352
15	0xbd2dba1c	-0.042413816
16	0xbd961a04	-0.07329181
17	0x3d603b84	0.05474426
18	0x3dc634b8	0.09678024
19	0xbc1fab88	-0.009745486
20	0xbd205924	-0.03914751
21	0xbd853825	-0.06504849
22	0xbbe5c9c0	-0.007012576
23	0xbd6620d9	-0.05618367
24	0x3b89fc40	0.0042109787
25	0x3d36206c	0.044464514
26	0xbd0b989c	-0.034081087
27	0x3db51612	0.088421
28	0x3d56f364	0.05247821
29	0x3d0544dc	0.032536373
30	0x3d7a40e0	0.061097026
31	0xbd84c938	-0.06483692
32	0x3db114d4	0.08646551
33	0xbdcad236	-0.09903376
34	0x3c7ecb50	0.015551403
35	0xbd9d91ee	-0.076938495
36	0x3da8c1a6	0.082400605
37	0x3dddb222	0.10824992
38	0x3d71b6b8	0.059012145
39	0x3b693000	0.0035581589
40	0x3d355f7c	0.044280514
41	0xbd42ab80	-0.047526836
42	0x3c78d050	0.015186384
43	0x3d87797e	0.0661497
44	0xb99dad00	-0.0003007427
45	0x3c08af98	0.008342646
46	0x3dc520f0	0.09625423
47	0x3ddd14c8	0.10794979
48	0x3d3c91bc	0.04603742
49	0xbd787ae5	-0.060664076
50	0x3ca03288	0.019555345
51	0xbc5d5c08	-0.0135107115
52	0xbcbd58b8	-0.023113593
53	0xbdb43eac	-0.08801016
54	0x3da37cda	0.07982798
55	0x3d8a89c0	0.06764555
56	0xbd02fe14	-0.03198059
57	0xbd72db96	-0.059291445
58	0xbdcfa921	-0.10139681
59	0xbdd5a26f	-0.104313724
60	0xbdc5fb7c	-0.096671075
61	0x3cb14e30	0.021643728
62	0xbd916d6c	-0.07100949
63	0xbddaf549	-0.10691316
64	0x3ddc69a4	0.10762337
65	0xbde54b42	-0.11195995
66	0xbcc0cdf0	-0.023535699
67	0xbd8c5033	-0.06851234
68	0xbdc934ec	-0.09824547
69	0x3db8d46c	0.09024891
70	0x3d156fbc	0.03648351
71	0x3dcbea6c	0.09956822
72	0x3db6883c	0.089127034
73	0xbafaf800	-0.0019147396
74	0x3d88954e	0.066691026
75	0x3d2499b4	0.040185645
76	0xbdd735c4	-0.10508302
77	0x3d96d8ec	0.07365593
78	0xbdaba748	-0.08381516
79	0xbd7bb210	-0.06144911
80	0x3cee0e28	0.029059485
81	0xbd4cf602	-0.0500393
82	0x3cbbc758	0.022922203
83	0xbdda7ce6	-0.10668354
84	0xbd934819	-0.07191486
85	0x3d92a1d0	0.071597695
86	0xbdebf728	-0.11521751
87	0x3dad31b4	0.08456746
88	0xbdac9488	-0.084267676
89	0xbd9fb63e	-0.07798432
90	0xbdc59bab	-0.09648832
91	0xbdc175fa	-0.0944633
92	0x3b52fc80	0.0032193959
93	0xbcf235a0	-0.029566586
94	0x3c373fe0	0.011184663
95	0x3dd7c33e	0.10535286
96	0xbdba60cc	-0.09100494
97	0xbd0fc0ae	-0.035095863
98	0xbc185a38	-0.009298854
99	0x3c6ea670	0.014566049
100	0xbc82ea10	-0.01598075
101	0xbce90588	-0.02844502
102	0xbdb831b4	-0.08993855
103	0xbcb68d90	-0.0222843
104	0xbb3df880	-0.002898723
105	0x3dcadff2	0.099059954
106	0x3ca5ffe8	0.020263627
107	0xbc6e20f8	-0.014534228
108	0x3da39f92	0.0798942
109	0x3deb4ecc	0.11489639
110	0xbd3b510e	-0.045731597
111	0xbde604ad	-0.112313606
112	0xbd383514	-0.044972494
113	0x3de7ba14	0.113147885
114	0x3db8ced2	0.09023823
115	0x3d7d79b0	0.06188363
116	0xbd048870	-0.03235668
117	0x3d8faaa8	0.07014972
118	0x3dac6842	0.08418323
119	0x3c3f1050	0.011661604
120	0xbcf25bf8	-0.02958487
121	0xbde8c958	-0.11366528
122	0xbdb43889	-0.08799846
123	0xbd0eab0c	-0.03483109
124	0x3d313afc	0.043269143
125	0x3db6050c	0.08887681
126	0xbdb5bde5	-0.0887411
127	0x3d956692	0.07294954
128	0xbce997ec	-0.028514825
129	0x3dc6a66a	0.0969971
130	0xbc691eb0	-0.014228508
131	0x3dddc0c2	0.10827781
132	0x3dc51074	0.09622279
133	0x3dd09fae	0.101867065
134	0xbd9d8969	-0.076922245
135	0xbd24693a	-0.040139414
136	0x3dad8202	0.08472063
137	0x3dd76ffc	0.10519406
138	0xbbf23b40	-0.007392317
139	0x3d66c230	0.056337535
140	0x3db45578	0.08805364
141	0xbddbaa18	-0.10725802
142	0x3db3826c	0.087651104
143	0x3dd00042	0.10156299
144	0x3d85e758	0.06538266
145	0x3d97b6ee	0.07407938
146	0xbd839ff0	-0.0642699
147	0x3b3cb1c0	0.002879247
148	0x3d498b90	0.049205363
149	0x3dbaa58c	0.09113607
150	0xbd4ea3e8	-0.050449282
151	0xbd6a0e91	-0.057142798
152	0x3d96847e	0.0734949
153	0xbd349112	-0.044083662
154	0xbc5844c8	-0.0131999925
155	0x3d21d000	0.039505005
156	0x3db192b0	0.086705565
157	0xbcb8677c	-0.022510283
158	0xbd8b5c48	-0.068047106
159	0x3de03c78	0.109490335
160	0xbd4e0462	-0.05029715
161	0xbd91abf8	-0.071128786
162	0x3c0b0be8	0.008486725
163	0x3d84fd74	0.06493655
164	0xbdeb33f6	-0.1148452
165	0x3d371a18	0.04470262
166	0x3c35c620	0.0110946
167	0x3daa4152	0.0831324
168	0xbd3aa9a6	-0.045571946
169	0x3dc2ba14	0.09508148
170	0x3dcf1b68	0.10112649
171	0xbbe431f0	-0.006963961
172	0x3d285334	0.041094974
173	0xbd3e700c	-0.046493575
174	0x3d90284c	0.07038936
175	0xbbab52e0	-0.0052283853
176	0xbd7c39b6	-0.061578475
177	0xbcfab524	-0.030603953
178	0x3dba5042	0.09097339
179	0xbd807590	-0.06272423
180	0xbdc8b462	-0.0980003
181	0xbdaf540a	-0.08560951
182	0x3d34519c	0.04402314
183	0x39026600	0.00012435764
184	0x3d93c3b2	0.0721506
185	0x3c2e22e0	0.010628432
186	0x3c8b0a98	0.016972825
187	0xbd32fb2a	-0.04369656
188	0x3dd2db1e	0.102956995
189	0xbdc4b8a4	-0.0960553
190	0x3d2b01cc	0.04174976
191	0x3d7d7bd4	0.06188567
192	0x3cd2a2f8	0.025712475
193	0x3c8e9f68	0.017409995
194	0x3b6629a0	0.0035120025
195	0x3c69e520	0.014275819
196	0xbdc6e9ff	-0.097126
197	0xbd9e0d0c	-0.07717332
198	0xbd2a118a	-0.041520633
199	0x3dbc3228	0.09189254
200	0xbd9cfd30	-0.07665479
201	0xbde2db93	-0.11077037
202	0xbc86271c	-0.01637607
203	0xbde9d7b0	-0.11418092
204	0x3da47a20	0.08031106
205	0xbd141686	-0.036154293
206	0x3b8c5bc0	0.0042833984
207	0xbd7a624e	-0.061128907
208	0xbdae050e	-0.08497058
209	0xbdceddce	-0.101009
210	0xbd923b32	-0.07140197
211	0x3b9da260	0.0048106164
212	0x3c968878	0.01837562
213	0x3d0579c8	0.032586843
214	0x3d4e2a9c	0.050333604
215	0xbc4702c8	-0.012146659
216	0x3cffc7e0	0.031223238
217	0xbd9173d4	-0.071021706
218	0xbd2984b8	-0.041386336
219	0xbd13945c	-0.03603016
220	0xbdc8149e	-0.097695574
221	0xbd2988d6	-0.041390263
222	0xbd36497a	-0.044503666
223	0x3d22fe08	0.039793044
224	0x3d3af87c	0.04564713

gating_networks.1.fc_layer.bias f4 [3]
0	0x3d84d3da	0.0648572
1	0x3bd806a0	0.0065925866
2	0x3c76a160	0.015053123

gating_networks.2.filters.0.weight f4 [25, 1, 3, 1]
0	0x3daecff8	0.08535761
1	0x3ef1ccdc	0.47226608
2	0xbf126b63	-0.5719511
3	0xbf110260	-0.5664425
4	0xbe003c96	-0.12523112
5	0x3eb44800	0.35211182
6	0xbeb9f518	-0.36319804
7	0x3d00de80	0.031462193
8	0x3ea938f4	0.33051264
9	0xbed0c8e0	-0.40778255
10	0xbe95383f	-0.29144475
11	0x3eb9c94e	0.36286396
12	0x3eb0a120	0.3449793
13	0xbf1071d7	-0.56423706
14	0xbc717e80	-0.014739633
15	0x3dfb83b8	0.12280983
16	0x3e273f94	0.16332847
17	0xbf13cd14	-0.577348
18	0xbc126d00	-0.00893712
19	0xbdcef26c	-0.10104832
20	0x3e8b1136	0.27161568
21	0xbea0f988	-0.31440377
22	0x3f0619fc	0.523834
23	0x3ef84ba4	0.4849521
24	0xbdaf1058	-0.08548039
25	0xbd29c720	-0.041449666
26	0xbee17149	-0.44031742
27	0xbe415118	-0.18878591
28	0x3f12fcd2	0.57417023
29	0x3e0463bc	0.1292867
30	0xbee52ff8	-0.4476316
31	0xbec6e076	-0.38843125
32	0xbe0c0796	-0.13674769
33	0x3f0570d0	0.52125263
34	0x3d41c320	0.047305226
35	0x3e1a6704	0.1507836
36	0x3e7dd59c	0.24788517
37	0xbeb1e5e0	-0.34745693
38	0x3ed8e354	0.42360938
39	0xbef5cb39	-0.4800661
40	0xbec808a0	-0.3906908
41	0xbf11f279	-0.5701061
42	0xbf05f9ba	-0.5233418
43	0xbe00c6e2	-0.12575868
44	0xbf0d3473	-0.55158156
45	0xbea6ee5e	-0.32603735
46	0x3f088358	0.53325415
47	0xbf072542	-0.52791226
48	0xbb91f180	-0.004453838
49	0xbdef6a34	-0.116901785
50	0x3f092e66	0.53586423
51	0x3ec1d4ec	0.3785776
52	0xbebd1d03	-0.36936197
53	0x3edd8498	0.43265224
54	0x3ea4e34e	0.3220467
55	0x3ee112fc	0.43959796
56	0x3ead06e0	0.33794308
57	0x3cf355c0	0.029703975
58	0x3ebd5c36	0.36984414
59	0xbeaaaa3c	-0.33333004
60	0xbe3f0690	-0.18654847
61	0x3eb8f12a	0.36121494
62	0xbeb354e4	-0.35025704
63	0xbe922249	-0.28541782
64	0xbefe73fe	-0.4969787
65	0xbe856e9f	-0.2606096
66	0xbdf98234	-0.121830374
67	0x3dfd1178	0.123568475
68	0xbeb379c0	-0.35053825
69	0xbf077aac	-0.5292156
70	0xbe92b1f9	-0.28651407
71	0xbdfa8824	-0.12232998
72	0x3e038cb4	0.12846643
73	0xbe80d974	-0.25165904
74	0xbee34945	-0.44391838

gating_networks.2.filters.0.bias f4 [25]
0	0x3e812aae	0.25227875
1	0xbed97076	-0.42468613
2	0x3e72d508	0.23714077
3	0x3be8ae00	0.0071008205
4	0xbef98e10	-0.48741198
5	0x3ca2de40	0.019881368
6	0xbd112ab0	-0.0354411
7	0x3d8d84c0	0.06910086
8	0xbdfe0094	-0.12402454
9	0x3d338e90	0.04383713
10	0x3d4bd380	0.04976225
11	0xbed7728a	-0.42079574
12	0xbe5189c6	-0.20462713
13	0xbe58374a	-0.21114841
14	0x3e94b986	0.29047793
15	0x3dfb48a8	0.122697175
16	0xbd6331d0	-0.055467427
17	0x3ee4c110	0.44678545
18	0x3e903ccc	0.28171384
19	0xbe2cf7c0	-0.16891384
20	0xbe9679c4	-0.29389775
21	0x3eb1e51a	0.34745103
22	0xbeccb50e	-0.39981884
23	0xbe639ab6	-0.22226986
24	0xbf064ec1	-0.5246392

gating_networks.2.filters.1.weight f4 [25, 1, 4, 1]
0	0xbdae4e20	-0.08510995
1	0xbd16a360	-0.0367769
2	0x3cc945c0	0.024569392
3	0x3e9f2ece	0.31090397
4	0x3ebdf402	0.37100226
5	0x3e7c6e24	0.2465139
6	0xbec4079e	-0.3828706
7	0xbe8186d4	-0.25298178
8	0x3eafd890	0.34344912
9	0x3eec5e46	0.46165675
10	0x3e3f3afc	0.18674845
11	0xbebb1d1e	-0.36545652
12	0x3e52d728	0.20589888
13	0x3e291844	0.16513163
14	0x3ee313de	0.44351095
15	0x3ec612a6	0.38686103
16	0xbe87dd14	-0.26535857
17	0x3dc1bc60	0.09459758
18	0x3e5b4810	0.21414208
19	0xbef39d68	-0.4758103
20	0x3dd38d50	0.103296876
21	0xbe8837fc	-0.26605213
22	0xbe0e0d98	-0.13872373
23	0x3db57100	0.08859444
24	0xbee90538	-0.45511794
25	0x3e91b466	0.28457946
26	0xbe6e6cc0	-0.23283672
27	0xbeac2cd6	-0.33627957
28	0xbe921b82	-0.28536612
29	0xbece2462	-0.40262133
30	0x3e987486	0.297764
31	0xbe024f18	-0.12725484
32	0xbefbcab6	-0.49178094
33	0xbece6aae	-0.40315765
34	0xbe975f1c	-0.2956475
35	0xbec1805c	-0.37793243
36	0xbdd54b98	-0.10414809
37	0x3ed75f16	0.42064732
38	0x3ecbbc86	0.3979227
39	0x3e32ef0c	0.17474002
40	0xbe300f40	-0.17193317
41	0xbe1fc1e8	-0.15601313
42	0xbeebd156	-0.46058148
43	0x3ebec010	0.37255907
44	0xbd5152b0	-0.051104248
45	0x3e8780b2	0.26465374
46	0xbe88297e	-0.26594156
47	0xbe334fc8	-0.17510903
48	0x3e4e6108	0.20154202
49	0xbe8112f2	-0.25209767
50	0x3d869ca8	0.065728486
51	0x3e11e67c	0.14248079
52	0x3eab54f4	0.33463252
53	0x3eb94dd8	0.36192203
54	0xbe5eedb0	-0.21770358
55	0xbea97d3e	-0.33103365
56	0xbdd27978	-0.102770746
57	0x3e9b8fd6	0.30383176
58	0xbedae102	-0.42749792
59	0x3e1867d4	0.14883357
60	0xbe451678	-0.19246852
61	0xbdb59a68	-0.08867341
62	0x3d7b4580	0.061345577
63	0xbec2c660	-0.38041973
64	0xbe1c81d4	-0.152839
65	0xbd0ec770	-0.034858167
66	0xbcb6ca80	-0.022313356
67	0xbe99b43a	-0.30020314
68	0x3ec23a28	0.37934995
69	0xbe63faf4	-0.222637
70	0xbe7ed15c	-0.24884552
71	0x3edeeaa6	0.43538398
72	0xbc845500	-0.016153812
73	0xbd197c80	-0.037472248
74	0x3da01218	0.07815951
75	0x3dd30268	0.10303193
76	0x3e2966e0	0.1654315
77	0x3eb1c314	0.34719145
78	0xbef93d42	-0.48679549
79	0x3d1d2710	0.03836733
80	0x3df44c80	0.11928654
81	0x3da1e4a8	0.07904941
82	0xbe82a946	-0.2551977
83	0xbdc78380	-0.097418785
84	0xbe57b4e8	-0.21065104
85	0x3e274148	0.16333497
86	0xbcc69b40	-0.02424395
87	0x3da21398	0.079138935
88	0xbeb122cc	-0.3459686
89	0xbeac05d2	-0.3359819
90	0x3ed9f7e8	0.4257195
91	0x3e7d720c	0.24750537
92	0xbe46046c	-0.19337624
93	0x3e0ae3ec	0.13563508
94	0xbec5192a	-0.3849576
95	0xbd4e2790	-0.0503307
96	0xbedc1fd4	-0.42993033
97	0xbee5236a	-0.4475358
98	0xbd122440	-0.035679102
99	0xbec6af9c	-0.38805854

gating_networks.2.filters.1.bias f4 [25]
0	0x3ea1a13c	0.31568325
1	0x3d339470	0.043842733
2	0x3edce9e0	0.43147182
3	0x3e16da60	0.14731741
4	0xbda47c00	-0.080314636
5	0x3ecc1d70	0.3986621
6	0xbe9e80f0	-0.30957747
7	0xbed121fc	-0.4084624
8	0xbdf08000	-0.11743164
9	0x3e50b2b8	0.20380676
10	0x3eaef8dc	0.3417424
11	0xbe8e3d60	-0.277812
12	0x3e580278	0.21094692
13	0xbde3efb8	-0.11129707
14	0x3ef76e6c	0.48326433
15	0x3ea5e21e	0.32399076
16	0xbeb174d4	-0.34659445
17	0x3e851ea0	0.25999928
18	0xbc8194e0	-0.01581806
19	0xbd64ecb0	-0.055889785
20	0xbed87eac	-0.42284143
21	0xbd8e54e0	-0.06949782
22	0xbeed47e6	-0.46343917
23	0xbe911a54	-0.283404
24	0x3e1b4ab8	0.15165222

gating_networks.2.filters.2.weight f4 [25, 1, 5, 1]
0	0xbebc702f	-0.3680434
1	0xbebb2529	-0.36551788
2	0xbea399de	-0.3195333
3	0x3e3ce820	0.18447924
4	0x3ea87e3a	0.32908803
5	0x3e2e4ed0	0.17022252
6	0xbdf7d898	-0.12101859
7	0xbe7fa026	-0.24963436
8	0xbd347218	-0.04405412
9	0xbe861e1e	-0.26194853
10	0x3dd28c98	0.102807224
11	0x3d6a7c40	0.0572474
12	0x3eb6846e	0.3564791
13	0xbe903f82	-0.28173453
14	0xbdf942ac	-0.1217092
15	0x3e1d6e84	0.1537419
16	0x3e9ce634	0.3064438
17	0xbd513e30	-0.051084697
18	0x3de13320	0.109960794
19	0x3e2e5940	0.17026234
20	0x3e95e0ce	0.29273075
21	0xbedfe806	-0.43731707
22	0xbe663f1d	-0.22485013
23	0xbed6bb37	-0.4193971
24	0x3e9e618c	0.30933797
25	0x3ecfd6e4	0.40593636
26	0xbeb68819	-0.3565071
27	0x3ecb667c	0.39726627
28	0x3d7430a0	0.059616685
29	0x3d1c9b10	0.038233817
30	0xbea37a2c	-0.31929147
31	0xbed86e1a	-0.422715
32	0x3e710404	0.23536688
33	0xbe5ec946	-0.21756467
34	0x3c829ef0	0.015944928
35	0xbe850d63	-0.25986776
36	0x3d7ae630	0.06125468
37	0xbe45b824	-0.19308525
38	0x3ae8d800	0.0017764568
39	0x3e25e508	0.1620065
40	0xbede83cf	-0.43459937
41	0x3cb277b0	0.021785587
42	0x3e588280	0.21143532
43	0x3deb5c08	0.11492163
44	0x3e6332b8	0.22187316
45	0x3ebf54c6	0.37369365
46	0x3e8ce9b2	0.27522045
47	0x3e1a3300	0.15058517
48	0x3e7cca48	0.24686539
49	0xbd873450	-0.06601775
50	0xbe8b72e7	-0.272361
51	0xbec3571a	-0.3815239
52	0x3e0e0e90	0.13872743
53	0xbdbd81d8	-0.09253281
54	0x3edf849a	0.43655854
55	0x3eae2df4	0.34019434
56	0xbe9a7613	-0.30168208
57	0x3e883e7e	0.26610178
58	0xbecf4d6d	-0.4048876
59	0x3e8d2486	0.27566928
60	0xbe76f6f6	-0.24117646
61	0x3c189480	0.009312749
62	0x3e280ab0	0.16410327
63	0xbe896420	-0.26834202
64	0xbe426c62	-0.18986657
65	0xbea1ae08	-0.31578088
66	0x3e374bec	0.17900056
67	0x3eb20344	0.34768116
68	0xbcecf060	-0.028923213
69	0x3e1da8d0	0.15396428
70	0xbcd75f30	-0.026290506
71	0x3c2c29c0	0.010508001
72	0x3eb9a8c6	0.36261576
73	0xbea52d9e	-0.32261366
74	0xbeb3fe4a	-0.35154945
75	0x3e4f32a8	0.20234168
76	0x3eace010	0.33764696
77	0xbeb8922f	-0.3604903
78	0xbe35bb92	-0.17747334
79	0x3e8963ec	0.26834047
80	0x3e4f8b9c	0.202681
81	0x3dd1dc08	0.10247046
82	0xbc85d400	-0.016336441
83	0x3ea26f8e	0.31725734
84	0x3ddcadd8	0.107753456
85	0x3ede11a6	0.4337284
86	0xbc8a4380	-0.01687789
87	0xbec19311	-0.37807515
88	0x3ede0b7c	0.43368137
89	0x3ed95b6c	0.42452562
90	0xba036a00	-0.00050130486
91	0xbe643fcf	-0.22289966
92	0x3e9c9b7e	0.3058738
93	0x3ecea424	0.40359604
94	0x3cd75ec0	0.026290298
95	0x3d49f750	0.04930812
96	0xbe4e8d20	-0.20171022
97	0xbecedc8a	-0.40402633
98	0x3ed55adc	0.41670883
99	0x3e8dd106	0.27698535
100	0x3d8fed30	0.07027662
101	0xbe11b32e	-0.14228508
102	0xbe2e5eae	-0.17028305
103	0x3e1916f8	0.14950168
104	0xbee1fb55	-0.44137064
105	0x3ebbc8ec	0.3667673
106	0xbe8f67fb	-0.28009018
107	0x3e11fa2c	0.14255589
108	0x3d69ba70	0.057062566
109	0x3e450088	0.19238484
110	0xbe0a91e8	-0.13532221
111	0xbd9ffd78	-0.07812017
112	0xbeaa1406	-0.33218402
113	0xbe35db66	-0.17759475
114	0x3c2db7e0	0.010602921
115	0xbe26431e	-0.1623654
116	0xbe7b9b8b	-0.24571054
117	0x3dbae198	0.0912506
118	0x3dda26d8	0.1065194
119	0x3d561e78	0.05227515
120	0x3ed1e822	0.40997416
121	0x3e8b6f66	0.27233428
122	0x3c56f420	0.013119727
123	0x3ec83f9e	0.39111036
124	0xbe97e1f0	-0.29664564

gating_networks.2.filters.2.bias f4 [25]
0	0x3e557504	0.20845419
1	0x3be92cc0	0.0071159303
2	0xbec1bef5	-0.37841
3	0xbd688e40	-0.056776285
4	0xbeae5924	-0.34052384
5	0xbcf60fd0	-0.030036837
6	0x3e939aee	0.2882914
7	0xbd67d328	-0.05659786
8	0x3d7c5780	0.061606884
9	0xbe2ca9c0	-0.1686163
10	0xbe8b07c2	-0.27154356
11	0xbe830e07	-0.2559664
12	0xbd789838	-0.060692042
13	0xbda82620	-0.08210397
14	0xbe274b9a	-0.16337433
15	0xbd84f300	-0.06491661
16	0x3ec05eae	0.37572235
17	0x3db0f160	0.08639789
18	0xbde0ae10	-0.109707
19	0x3d94b290	0.072606206
20	0x3ebd7666	0.37004393
21	0x3b874280	0.0041278005
22	0xbe8352a4	-0.25648987
23	0x3ee3ca1c	0.44490135
24	0x3e442940	0.1915636

gating_networks.2.fc_layer.weight f4 [3, 75]
0	0x3d4965f8	0.04916951
1	0x3dd6e1be	0.10492276
2	0xbdcb3390	-0.09921944
3	0x3ddc6012	0.107605115
4	0x3d36ff10	0.04467684
5	0x3dd01fe0	0.1016233
6	0x3de9fd18	0.11425227
7	0xbc6aa698	-0.014321946
8	0x3bd6a8c0	0.0065508783
9	0xbc8f6510	-0.017504245
10	0xbdd0d16e	-0.101961955
11	0xbda38883	-0.07985022
12	0xbc189978	-0.009313934
13	0xbb647100	-0.0034857392
14	0xbd824148	-0.06360108
15	0x3d9770fc	0.07394597
16	0xbdaa9008	-0.08328253
17	0x3ccd2808	0.025043502
18	0xbdab6515	-0.08368889
19	0xbd921baa	-0.07134183
20	0xbd942657	-0.07233875
21	0xbc3a7150	-0.011379555
22	0x3d3a6114	0.045502737
23	0x3d84826a	0.06470187
24	0xbd02c8ba	-0.03192971
25	0x3db84900	0.08998299
26	0xbd8df2b5	-0.06931058
27	0xbd8d7d34	-0.06908646
28	0x3cbae808	0.02281572
29	0x3cc21670	0.02369234
30	0x3dccfa7e	0.10008715
31	0x3dd0ef60	0.10201907
32	0xbc96610c	-0.018356822
33	0x3ddb0668	0.10694581
34	0x3b954510	0.004555352
35	0xbd8e5b2e	-0.06950985
36	0x3d79c674	0.060980275
37	0xbdd52da1	-0.10409094
38	0x3d797e30	0.060911357
39	0xbd27191c	-0.04079543
40	0xbdc04758	-0.09388608
41	0xbb5eb300	-0.0033981204
42	0x3dd6fdf0	0.104976535
43	0x3d913a2e	0.07091175
44	0x3cf5f048	0.030021802
45	0x3d6179bc	0.055047736
46	0xbdcac648	-0.099011004
47	0x3de0bb06	0.10973172
48	0x3dbd2e82	0.09237386
49	0x3dc83b9e	0.09776996
50	0x3a508280	0.00079540163
51	0xbd560966	-0.052255057
52	0x3db683e8	0.08911878
53	0x3ddccb66	0.10780983
54	0xbd4e1dca	-0.050321378
55	0xbd6acf11	-0.05732638
56	0x3d9c4d22	0.076318994
57	0xbd73eec1	-0.059553865
58	0xbda5f6be	-0.08103703
59	0xbdc19f8e	-0.09454261
60	0xbdd7c70a	-0.105360106
61	0x3b9469f0	0.0045292303
62	0xbd99d2fa	-0.07510944
63	0x3cb1f5b0	0.021723598
64	0xbd53f4de	-0.051747195
65	0x3d96181a	0.07328816
66	0x3d67349c	0.056446657
67	0xbd977c33	-0.07396736
68	0xbd8a5ae5	-0.06755618
69	0xbde34320	-0.110967875
70	0x3d785b84	0.06063415
71	0xbbf4c6f0	-0.0074700043
72	0x3cf37e98	0.02972345
73	0x3c3e8d00	0.011630297
74	0x3cf4f920	0.029903948
75	0xbc9c1c98	-0.019056603
76	0x3d220bfc	0.03956221
77	0x3d60c5b8	0.05487606
78	0x3d0ec4a0	0.034855485
79	0x3d2ae758	0.041724533
80	0x3d85c786	0.06532197
81	0xba8bba40	-0.0010660365
82	0x3c9119b0	0.017712444
83	0xbda13c03	-0.078727745
84	0xbddeff06	-0.108884856
85	0xbd535166	-0.0515913
86	0x3db03c34	0.08605233
87	0x3dc8fa10	0.09813321
88	0xbd017f98	-0.031615824
89	0xbdea0a5b	-0.114277564
90	0xbd611190	-0.05494839
91	0xbd68d479	-0.056843255
92	0x3d1c0ca4	0.038097993
93	0xbc91234c	-0.017717026
94	0x3d516034	0.051117137
95	0x3db69f6c	0.08917126
96	0x3dbe84aa	0.093026474
97	0xbcb5990c	-0.022167705
98	0x3c5ae5e0	0.0133604705
99	0xbcfd4724	-0.030917712
100	0xbd9f40b6	-0.077760145
101	0x3dbf229c	0.09332773
102	0xbd473d1e	-0.04864227
103	0x3d5dc1e0	0.05413997
104	0xbdbd035d	-0.09229157
105	0x3b8bbd90	0.004264541
106	0x3dbf0d90	0.09328759
107	0xbda1f36e	-0.07907759
108	0xbd4abcca	-0.04949645
109	0x3c3af4d0	0.011410907
110	0x3c89faf0	0.01684329
111	0x3ddea894	0.108719975
112	0xbcc33c3c	-0.023832433
113	0xbdb8b877	-0.09019559
114	0xbdeb38ed	-0.11485467
115	0xbd5166e2	-0.051123507
116	0xbce46fe4	-0.027885385
117	0x3c5ada20	0.013357669
118	0x3d86a11a	0.065736964
119	0x3d313c50	0.04327041
120	0x3cb8d370	0.022561759
121	0xbd838df4	-0.0642356
122	0x3db36b66	0.08760719
123	0xbd847856	-0.06468265
124	0x3b8c2040	0.0042763054
125	0x3dcb9fb2	0.09942569
126	0x3b847b30	0.0040430054
127	0xbc98cafc	-0.018651478
128	0x3d1220d4	0.03567584
129	0x3cb0f198	0.021599576
130	0x3d8e3f8e	0.06945716
131	0x3d8494f2	0.064737216
132	0xbc643560	-0.013928741
133	0x3bca26e0	0.006169185
134	0xbdb67dd2	-0.08910717
135	0x3d9e18c8	0.077195704
136	0x3d48b7bc	0.049003348
137	0x3cb13c28	0.02163513
138	0x3d8f2b72	0.069907084
139	0x3dd8037c	0.105475396
140	0x3cd8f680	0.026484728
141	0xbc42ff90	-0.011901751
142	0x3d258a98	0.040415376
143	0xbb29d9e0	-0.0025917217
144	0x3d37602c	0.04476945
145	0x3d1a6548	0.037694246
146	0xbde0220f	-0.10943996
147	0xbdbe3753	-0.09287896
148	0x3dc0eade	0.09419797
149	0x3d5e35d8	0.05425057
150	0xbcf7fcbc	-0.03027188
151	0xbc600be0	-0.013674706
152	0xbccdd7e8	-0.025127366
153	0x3d63c218	0.055605024
154	0xbd034e88	-0.032057315
155	0x3dc4d302	0.09610559
156	0x3dcaa138	0.09894031
157	0xbd8ee920	-0.06978059
158	0x3d9ccf7e	0.076567635
159	0xbd04840c	-0.032352492
160	0xbd19903e	-0.037491076
161	0x3c9926f0	0.018695325
162	0xbdd13b12	-0.10216345
163	0xbd686320	-0.056735158
164	0x3c3d85c0	0.011567533
165	0xbdb45c4c	-0.08806667
166	0xbc801164	-0.015633292
167	0xbcfd77cc	-0.030940913
168	0x3c439c10	0.011939064
169	0xbc8751a0	-0.016518414
170	0xbcce1f64	-0.025161453
171	0xbd85a687	-0.06525903
172	0x3d131fe8	0.0359191
173	0x3d22470c	0.039618537
174	0xbd49bff6	-0.049255334
175	0xbde40a16	-0.11134736
176	0xbd7c8e99	-0.06165943
177	0x3c5f76a0	0.013639122
178	0xbc61f3d0	-0.01379104
179	0x3dbce19e	0.092227206
180	0x3aee1b40	0.001816608
181	0x3b0c3f20	0.002139993
182	0xbdad55ca	-0.084636286
183	0x3d82b72a	0.06382592
184	0xbd0ed13a	-0.034867503
185	0xbc7a2ae0	-0.015269011
186	0x3d9a2676	0.07526867
187	0x3d4543b0	0.048160255
188	0xbdbd5f68	-0.09246713
189	0xbd605658	-0.054769844
190	0x3cdf89d8	0.027287409
191	0xbdc8c840	-0.0980382
192	0x3c929f28	0.017898157
193	0x3b8df4c0	0.004332155
194	0x3cd623c0	0.026140094
195	0xbd886336	-0.06659548
196	0x3cca72b8	0.024712905
197	0xbdc0a566	-0.09406547
198	0xbde6ca1d	-0.11269019
199	0xbdec2a93	-0.11531558
200	0x3dc7ca04	0.09755328
201	0xbdc9c508	-0.09852034
202	0xbdc29184	-0.09500411
203	0xbde841b9	-0.113406606
204	0x3de78ab0	0.113057494
205	0x3dd325f0	0.103099704
206	0xbc26e9a0	-0.0101875365
207	0x3dbf35a4	0.09336403
208	0x3dde2172	0.10846223
209	0x3da57220	0.08078408
210	0x3db50b4a	0.08840044
211	0xbc3e3658	-0.011609636
212	0xbd0a7a7a	-0.03380821
213	0xbcdb9204	-0.026803024
214	0x3da10fea	0.078643635
215	0x3d213328	0.039355427
216	0x3d892388	0.0669623
217	0xbd881c63	-0.06646039
218	0xbdc52d70	-0.09627807
219	0x3db5a470	0.088692546
220	0x3d8fb75a	0.070173934
221	0xbd8670b5	-0.06564466
222	0x3d68d8c8	0.056847364
223	0x3d3de5c4	0.0463617
224	0x3d4e86f8	0.050421685

gating_networks.2.fc_layer.bias f4 [3]
0	0xbd90d32e	-0.07071529
1	0xbdc95fb3	-0.09832706
2	0x3cf840b0	0.030304283
