test_data/model.pt (torch_old, 506298 bytes, 54 tensors)

gating_networks.0.filters.0.weight f4 [25, 1, 3, 1]
000000 5e 07 83 3e d4 ca aa be 85 17 13 bf a8 83 bc 3e
       0.25591558 -0.3335787 -0.5745776 0.36819196
000010 6e 69 80 be dc 47 49 be 58 7c ba 3e 8a d4 35 be
       -0.25080436 -0.19656318 0.36422992 -0.17756858
000020 14 0a 45 3e 40 27 6c 3c ad 26 91 be ac 45 81 3e
       0.19242126 0.014413655 -0.2834982 0.25248468
000030 f0 62 3a 3d c0 07 4b bc 40 0a 84 bc 18 21 0e 3f
       0.04550451 -0.012391984 -0.016118169 0.5551925
000040 08 16 f5 3d 7c 69 17 3e 50 20 33 3e f8 8a 98 3e
       0.11967093 0.14786333 0.17492795 0.29793525
000050 d0 7b 7f bd 38 2d ac 3d 99 9d 95 be 00 9e e2 3e
       -0.062373936 0.08407062 -0.292218 0.4426117
000060 ea 13 b7 3e f8 eb af 3e 41 6f b9 be 84 06 e9 be
       0.3575738 0.34359717 -0.36217692 -0.45512784
000070 d8 dd ea 3e ec f6 48 be 98 21 ca 3e db cf f1 be
       0.45872378 -0.19625443 0.39478755 -0.47228894
000080 bc 07 73 3e 04 89 38 3e c8 85 fe 3e 48 55 5b 3e
       0.23733419 0.18021017 0.49711442 0.21419251
000090 7c cc 01 3f e5 68 96 be 76 aa 44 be 00 08 89 ba
       0.50702643 -0.29376903 -0.1920565 -0.0010454655
0000a0 9a cb 9f 3e c8 d0 09 3f f8 15 0f 3e e0 a0 85 bc
       0.31210023 0.538342 0.13973224 -0.016312063
0000b0 60 af 17 3e 28 b7 ff 3d 34 35 79 3e 9c e2 32 be
       0.14812994 0.12486106 0.24336702 -0.17469257
0000c0 c4 e6 ef bd 98 ee f6 3d d8 9b b5 3d ee 29 5e be
       -0.11713937 0.12057227 0.088676155 -0.21695682
0000d0 30 6a e2 3d b8 15 76 be e0 2a 7e bd 90 9b ad 3d
       0.1105541 -0.24031723 -0.062052608 0.08476937
0000e0 74 42 64 3e a8 09 10 3f 40 41 62 3e e0 fb 41 3d
       0.22290975 0.56264734 0.22095203 0.047359347
0000f0 e4 c3 e9 3e aa c3 7a be a6 d8 88 3e 90 da 4d 3e
       0.45657265 -0.24488702 0.2672779 0.20102906
000100 30 76 07 bf 24 01 87 3e 78 2e f4 3d 84 a4 30 3e
       -0.52914715 0.26368058 0.11922926 0.17250258
000110 7a 8c 69 be cc a0 33 be 39 18 8b be 18 55 02 bf
       -0.22807494 -0.17541808 -0.27166918 -0.5091109
000120 3c bb c8 3e 10 12 44 3e d4 46 9e be
       0.39205348 0.19147515 -0.30913413

gating_networks.0.filters.0.bias f4 [25]
000000 4e d3 82 3e 7e 77 94 3e 12 0d 07 bf d0 58 61 3d
       0.25551838 0.28997415 -0.5275432 0.05501634
000010 80 c7 8d bc b4 81 bd 3e 5c 0c 4b 3e 78 9a 3a 3e
       -0.017307043 0.37013018 0.19828933 0.18222988
000020 02 06 0f 3f e7 c9 8e be 5a 46 1c be 2a 47 87 be
       0.5586854 -0.27888414 -0.15261212 -0.2642148
000030 86 71 1a be 28 c2 e6 bd e0 29 a4 3d 26 2a cd 3e
       -0.15082368 -0.11267501 0.080157995 0.4007122
000040 ee 77 e8 be b2 6e 9c 3e b0 f7 88 bd ec 4b dc 3e
       -0.45404 0.30553204 -0.06687868 0.43026674
000050 94 9f f2 3e 30 bf 5f 3e e0 24 9e bd 5c 25 32 3e
       0.47387373 0.21850276 -0.07721877 0.17397064
000060 64 a2 0f 3f
       0.56107163

gating_networks.0.filters.1.weight f4 [25, 1, 4, 1]
000000 78 5a f1 be 5e cf 81 3e 50 01 d1 3e 0c 9e d0 3e
       -0.47139335 0.2535352 0.40821314 0.4074558
000010 1e 15 98 3e 7c 86 18 be ce c0 fd be a0 b6 99 be
       0.2970361 -0.14895052 -0.4956116 -0.30022144
000020 e0 ad 02 3e 80 e7 67 be 52 1c c1 be d0 45 ae 3d
       0.1276164 -0.22646904 -0.3771692 0.085094094
000030 7a db f8 be b8 31 ae bd 68 e6 11 be 14 62 53 be
       -0.48604947 -0.08505577 -0.1424805 -0.20642883
000040 6c 4e ce 3e c4 05 6e 3e 52 9f f4 3e 60 d7 14 be
       0.40294206 0.23244387 0.47777802 -0.14535284
000050 8e 9a ca be f2 4b f7 3e da 4e dd be c0 e5 ff 3c
       -0.3957104 0.4830013 -0.4322422 0.031237483
000060 24 d3 5a 3e 98 5f a3 bd de ea f2 be 60 74 40 3e
       0.21369606 -0.079772174 -0.47444814 0.18794394
000070 18 ce c0 3e 1a 90 c9 be d4 c8 c7 3e fc 02 a4 be
       0.37657237 -0.39367753 0.39020407 -0.32033527
000080 24 88 94 be f8 b4 e1 bd fe 64 c8 be e0 63 06 bd
       -0.29010117 -0.11020845 -0.3913955 -0.032810092
000090 28 43 f7 3e 80 6f 69 3e 60 bc 2d 3e fc c6 91 be
       0.48293424 0.2279644 0.1696639 -0.28472126
0000a0 b2 57 9f 3e 26 c3 c2 3e d8 0c 3a be 00 19 e4 be
       0.31121594 0.3803951 -0.18168962 -0.44550323
0000b0 aa f3 8c be 2c 99 ee be f8 34 9c 3e 24 35 19 3e
       -0.2752965 -0.46601236 0.30509162 0.14961678
0000c0 c8 de 86 be de 67 c2 be e0 57 dc 3e 68 e4 6a 3e
       -0.26341844 -0.3796987 0.43035793 0.22938693
0000d0 28 46 f6 bd 6a 57 f1 3e 98 34 b1 3d 8c dc 76 3e
       -0.120251 0.47137004 0.086526096 0.2410757
0000e0 04 61 9a be 18 fa a3 be 48 28 62 3e 10 c0 07 bd
       -0.30152142 -0.32026744 0.22085679 -0.03314215
0000f0 ac ed cf be 8e a6 f5 3e e4 fa bb be 4a 99 ca 3e
       -0.40611017 0.47978634 -0.36714852 0.39570075
000100 68 78 aa bd da 87 d5 3e 80 24 ec 3d 40 f8 ce 3c
       -0.08323747 0.4170521 0.11530399 0.02526486
000110 42 23 82 be a4 5a ba 3e 00 ac 09 be c0 bc 8d 3c
       -0.25417525 0.36397278 -0.13444519 0.017301917
000120 14 5a 92 3e b6 d5 80 be 2e 7f 94 3e e0 5b 6a be
       0.2858435 -0.25163049 0.2900328 -0.2288661
000130 08 c7 9f bd 42 ac 93 3e a2 13 96 be 00 1e cf bd
       -0.07801634 0.2884236 -0.29311854 -0.10113144
000140 34 85 4d be 68 ff 75 be 50 7c c9 bd 76 d0 c5 be
       -0.20070344 -0.24023211 -0.09838164 -0.38635606
000150 dc 2a 64 be ba 2c 8f be 9c a7 90 3e 9c 00 c1 3e
       -0.22281975 -0.2796381 0.28252876 0.37695777
000160 44 19 03 3e 80 d6 e4 be 58 46 94 be f6 dd 92 be
       0.12802607 -0.446949 -0.28959918 -0.28684968
000170 30 24 a1 bd 60 52 cd 3c 12 34 9e be 6e 57 90 be
       -0.0786823 0.025063694 -0.30899101 -0.28191704
000180 94 c7 33 3e 0a cd c8 be ac e7 0e 3e dc 32 9b 3e
       0.17556602 -0.39218932 0.13955563 0.3031224

gating_networks.0.filters.1.bias f4 [25]
000000 12 7a b7 3e f0 70 f2 bd a0 69 f8 be 70 83 f8 3e
       0.3583532 -0.11837947 -0.48518085 0.4853778
000010 94 44 a6 3e 12 df dc be f0 b7 83 bd 04 a9 9b 3e
       0.32474196 -0.4313894 -0.06431568 0.30402386
000020 c8 42 e6 bd 80 34 b0 3d 84 f3 a3 be 7c a9 cf 3e
       -0.11243206 0.086037636 -0.32021725 0.40558994
000030 88 4e 4d be 1c 6f 5b 3e c6 30 ca be 60 17 30 be
       -0.20049489 0.21429104 -0.39490336 -0.17196417
000040 d4 2b b6 3e 84 d5 4c 3e ea 97 82 3e c8 9a 21 be
       0.35580313 0.20003325 0.25506526 -0.157817
000050 04 0d 85 3e 68 d5 b7 3e b8 38 00 3e 48 47 bb be
       0.25986493 0.35905004 0.12521636 -0.3657782
000060 e0 98 8a bc
       -0.0169186

gating_networks.0.filters.2.weight f4 [25, 1, 5, 1]
000000 9c 98 ca be cd c5 61 be 24 c4 cc bd 76 4d 80 3e
       -0.39569557 -0.22048111 -0.09998348 0.25059098
000010 fc 98 7a be fc 73 ef bd 3e dd 84 3e b8 e9 02 3e
       -0.24472421 -0.11692044 0.25950044 0.12784469
000020 34 f2 d0 3e 18 49 5a 3e 10 67 32 3e b0 ee e2 be
       0.40809786 0.21316946 0.17422128 -0.4432273
000030 a2 d4 ad be 18 2c 9c 3e 26 ff 46 be ec c0 11 3e
       -0.33951288 0.3050239 -0.19433269 0.1423375
000040 e8 87 bd be 50 1b 13 be 6e 9c 92 be a0 f7 3f bc
       -0.3701775 -0.14365888 -0.2863497 -0.011716753
000050 00 33 2a bb 76 e0 d1 3e 5c f9 42 3e f8 30 1a 3e
       -0.002597034 0.40991563 0.19040436 0.15057743
000060 e0 c5 9a 3c c8 6a 95 3e 82 f5 31 be ff d6 85 be
       0.018893182 0.2918303 -0.1737881 -0.26140592
000070 00 ad fb ba b4 3a 89 be d0 cd 2e be 38 7d 8f be
       -0.0019201338 -0.268026 -0.17070699 -0.28025222
000080 d3 63 c5 be f2 c8 cb be 74 37 29 3e 88 53 ee bd
       -0.38552722 -0.39801747 0.1652506 -0.11637026
000090 3c 8a 6e 3e f6 a2 08 be 98 82 d1 3d 1d e3 d9 be
       0.2329492 -0.13343415 0.10229987 -0.42556086
0000a0 ca d1 a5 3e be 6b 39 be 38 60 ab bd ec cb 86 3e
       0.3238662 -0.18107507 -0.08367962 0.26327455
0000b0 c4 cd e0 bd 94 13 19 3e 2e 2b 35 be 5c c6 a0 bd
       -0.10976747 0.14948875 -0.17692253 -0.07850334
0000c0 40 31 d8 bc a0 a3 70 3c c0 c5 13 3e 0c 38 64 3e
       -0.026390672 0.014687449 0.14430904 0.22287005
0000d0 70 34 b6 bd 18 44 8b be f0 dc af 3e 48 a1 7d 3e
       -0.088967204 -0.2720039 0.3434825 0.24768555
0000e0 68 26 d7 bd f4 c3 af 3e c0 40 87 3c bc c3 45 3e
       -0.10505372 0.34329188 0.016510367 0.19312948
0000f0 90 af a4 3e 4b ef af be 9a 7d 5f be e0 27 02 be
       0.32165194 -0.34362254 -0.21825257 -0.12710524
000100 c0 50 98 bc e8 22 b9 bd 24 24 da bd 2c 58 0f 3e
       -0.018593192 -0.09039861 -0.106514245 0.13998479
000110 a8 29 a7 3d d8 a3 6b be a0 74 22 bc d0 83 f8 bc
       0.08162242 -0.2301172 -0.009915501 -0.03033629
000120 94 6b ce 3e d0 c2 ff 3d d4 e6 c9 3e dc 28 a4 be
       0.4031645 0.124883294 0.3943392 -0.32062423
000130 3e ef 8d 3e a0 78 e7 3d 20 b9 69 3d c8 a4 70 3e
       0.2772159 0.11302304 0.057061315 0.23500359
000140 62 80 ba 3e 9c 49 e3 3e 06 ea 58 be 7d cf 87 be
       0.36426073 0.44392097 -0.21183023 -0.26525488
000150 ea 6e bc 3e 54 ce 8e 3e 34 c0 da be a1 33 93 be
       0.3680337 0.2789179 -0.42724764 -0.28750327
000160 78 85 d4 3d b3 86 d8 be 94 a8 20 3e 8c 35 96 3e
       0.1037702 -0.42290267 0.15689307 0.29337728
000170 c0 ab ca 3e 68 76 83 be b0 ed 00 be c6 c8 66 be
       0.3958416 -0.25676274 -0.1259067 -0.22537526
000180 b0 7a f3 3d e0 7c 3b bd 98 b2 c8 3e 30 af d9 3c
       0.11888635 -0.045773387 0.39198756 0.026572794
000190 d8 6a 44 3e ee 33 b7 3e 00 a7 64 bd 8c 72 48 be
       0.19181383 0.35781807 -0.055823326 -0.19574946
0001a0 e4 ba ee bd 9e 4b 94 be 68 b8 bb 3e a8 0d bf bd
       -0.1165674 -0.2896394 0.36664128 -0.093287766
0001b0 9c f0 36 3e 10 eb 1e 3d 6a f8 3e be f8 74 83 3d
       0.17865223 0.03879839 -0.1864945 0.064187944
0001c0 50 4b 9e 3d 0e 8c 3d be c6 5e 9e 3e 6e 77 9e be
       0.077292085 -0.18510458 0.3093168 -0.30950493
0001d0 a4 0e 50 3e a0 b1 6f 3e e8 47 de bd 80 39 07 3e
       0.20318085 0.23407602 -0.10853559 0.13205528
0001e0 cc e5 3d be 00 fa 02 3e 48 54 a0 3d 80 a7 61 3b
       -0.18544692 0.1279068 0.078285754 0.0034432113
0001f0 28 2c 97 be
       -0.29525876

gating_networks.0.filters.2.bias f4 [25]
000000 96 01 91 be 00 2c d6 ba ea b7 7b be ac 18 31 3e
       -0.28321522 -0.0016340017 -0.24581876 0.17294568
000010 d3 b5 b5 be 80 e5 79 bd 48 61 08 bd 0e 58 8b be
       -0.35490283 -0.061009884 -0.0332959 -0.27215618
000020 68 55 ba 3e 98 9b 80 3d ab ef a6 be 44 f4 5f be
       0.36393285 0.06279677 -0.32604727 -0.21870524
000030 22 cc 95 3e fe ff 9e be f4 8c 1d 3e 50 ff 87 be
       0.29257303 -0.31054682 0.153858 -0.26561975
000040 24 0c c1 bd c0 7a 9e 3e 80 70 7d 3e 34 ba 40 3e
       -0.09426144 0.30953026 0.24749947 0.18821031
000050 50 57 4b bd ca c5 ad 3e f6 43 aa be 60 fb de bc
       -0.049643815 0.33939964 -0.33254975 -0.027219474
000060 68 91 a0 3e
       0.31360936

gating_networks.0.fc_layer.weight f4 [3, 75]
000000 02 58 7d bd e4 5d 65 bd 00 8d 2e 3a 00 d9 3b bc
       -0.06185151 -0.055997744 0.0006658584 -0.011465311
000010 e0 54 bd 3d e0 01 af 3d d4 1a 40 bd 02 63 b2 bd
       0.09244704 0.085452795 -0.046900585 -0.087102905
000020 d2 c9 85 3d 46 9b 85 3d 5f ed de bd 30 e4 4d 3c
       0.06532635 0.06523757 -0.10885119 0.012566611
000030 aa 94 ba 3d 64 3d 5b 3d 9b 85 84 bd 10 c0 e0 3c
       0.09110387 0.053525344 -0.06470796 0.027435333
000040 70 5d 5d 3c d0 27 0a bd 70 c4 48 3c 30 64 83 bd
       0.013511047 -0.033729374 0.012253866 -0.064155936
000050 40 b0 0c bb e2 26 86 3d 58 1c b0 3c 30 5f 9e 3d
       -0.0021467358 0.06550385 0.02149789 0.07732999
000060 85 23 e9 bd b8 9f 7d 3d a4 a4 d7 bc d6 fe 92 bd
       -0.11383728 0.061919898 -0.026323624 -0.07177512
000070 70 c1 8b 3d 60 8d 74 3b c8 57 d3 3c 54 8b d5 bc
       0.06824005 0.0037315711 0.025798693 -0.026067413
000080 e0 5e 36 3d d2 94 d1 3d a0 f1 6a 3c 26 49 06 bd
       0.044524074 0.10233463 0.014339834 -0.032784604
000090 64 e9 33 3d 10 de b8 3c f2 31 e8 3d 6d ca 98 bd
       0.04392375 0.022566825 0.11337651 -0.07460485
0000a0 c0 3f 7c 3c b8 34 20 3d 24 7c af bc b0 02 89 3d
       0.015396059 0.039112777 -0.0214215 0.06689966
0000b0 95 c9 5b bd 98 1f 29 bd ad b3 b9 bd 62 48 e1 bd
       -0.05365904 -0.041289896 -0.090674736 -0.11000134
0000c0 4a 07 dd 3d b4 d8 aa 3d 06 24 a7 3d dc ee af 3d
       0.10792406 0.08342114 0.08161168 0.08590481
0000d0 5c 41 1a 3d 48 7b 8c 3c 22 2e a8 3d f0 46 2c bd
       0.037659988 0.017148629 0.08211924 -0.04205984
0000e0 f0 fc b6 bd 48 25 a3 3c b6 6a 9b 3d 84 1f 73 3d
       -0.08934963 0.019915238 0.07588713 0.059356228
0000f0 eb ba 81 bd f0 77 dc bc 30 71 3d bd e4 cf 3f 3d
       -0.0633448 -0.02691266 -0.046250522 0.04682912
000100 08 2a 3f 3d 38 b3 ff bc 27 74 b7 bd f2 75 d1 bd
       0.046670943 -0.031213388 -0.08957701 -0.102275744
000110 10 97 2b 3d 30 57 ca 3c 80 88 61 bd d0 73 88 3c
       0.04189211 0.024699777 -0.055061817 0.016656786
000120 92 af 84 3d 0a ca 99 3d c8 19 65 bd 04 22 b8 bc
       0.064788 0.07509239 -0.05593279 -0.022477157
000130 00 52 b8 3c 30 6c df 3d 2c b7 2b bd 00 cd 35 bc
       0.022500038 0.10909307 -0.041922733 -0.011096239
000140 98 c3 14 3d a0 21 e4 bb 80 d8 a9 3a 48 dd d9 bc
       0.036319345 -0.006962016 0.0012958199 -0.026594773
000150 a0 8e a2 3b de 06 ab 3d b8 6c 57 3d d9 72 c6 bd
       0.00496085 0.08350919 0.052593917 -0.09689874
000160 de ae b6 3d c8 05 e8 3c d6 9d e4 3d 7e 5f 56 bd
       0.08920072 0.02832307 0.11162917 -0.052337162
000170 18 8a 12 3d 64 17 22 bd 48 e8 a4 3c 04 d9 09 bd
       0.035776228 -0.03957309 0.020130292 -0.033654228
000180 70 09 88 3b b0 f5 d2 3b a8 bc 4b bc 50 48 01 bc
       0.0041515157 0.0064379796 -0.012435116 -0.007890776
000190 42 b6 af 3d c4 bf 3a bd 46 60 41 bd b0 83 ac bb
       0.08579685 -0.04559304 -0.047210954 -0.005264722
0001a0 9c 89 92 bd 3a 99 ad bd 60 63 3e 3d 8d a1 9f bd
       -0.07155153 -0.08476491 0.04648149 -0.07794485
0001b0 08 80 bd 3d 3c 9e 62 bd 34 48 92 bd 3e b7 88 3d
       0.09252936 -0.055326685 -0.07142678 0.06675576
0001c0 c0 06 d5 3b 0c 1a 3b 3d b0 37 5b 3c 12 fe e8 bd
       0.006501049 0.045679137 0.013379976 -0.11376585
0001d0 a1 ab e4 bd f0 43 d7 bc 10 38 48 3c 64 92 e5 bc
       -0.11165548 -0.026277512 0.012220398 -0.028023906
0001e0 80 b0 fd bb f9 ce 87 bd 9a f9 9e bd f8 43 06 3c
       -0.0077419877 -0.06631274 -0.077624515 0.008194916
0001f0 10 3b 97 3d a8 f2 8e 3c b8 df 92 bd a2 cd da bd
       0.07384312 0.017449692 -0.07171577 -0.106837526
000200 bf 78 c0 bd 00 bb 0d 3d 00 1f 30 3c 3c e2 7c 3d
       -0.093980305 0.034602165 0.0107495785 0.06173919
000210 de ea 3d bd 80 1e 91 bc 98 af f4 bc 08 f6 45 bd
       -0.046366565 -0.017714739 -0.029868886 -0.048330337
000220 b8 32 7e 3d ba 18 00 bd 8e aa 27 bd 1c 6c 16 bd
       0.062060088 -0.03127358 -0.040934138 -0.036724195
000230 ef 51 6c bd 36 d1 26 bd 1f 21 a6 bd 88 c4 43 bc
       -0.057695325 -0.040726863 -0.08111786 -0.011948712
000240 00 d2 7d 39 e4 a9 8c bc dc 80 a8 bd 88 c9 1d bd
       0.00024206191 -0.017170854 -0.08227703 -0.038522273
000250 b4 08 31 3d 54 c3 b4 3d 90 35 66 3c 6e b4 63 bd
       0.04322119 0.088263184 0.014050856 -0.055591993
000260 60 ca c8 bd f0 ef ed bb 30 f9 0c 3d a8 31 c1 3c
       -0.09804225 -0.007261269 0.03441733 0.023583248
000270 8c 73 87 bc 4e ed 0d bd b7 dd e8 bd 28 04 c2 bd
       -0.01653459 -0.03465014 -0.11370414 -0.09473449
000280 6e af 8a bd 7c cc 3b 3d 20 ab 67 3d 98 ec e6 bc
       -0.06771742 0.04584931 0.056559682 -0.028188989
000290 9c 9c 8f 3d 38 d0 c2 3d c0 34 b1 3d a0 1e db bc
       0.07012293 0.09512371 0.086526394 -0.026748002
0002a0 40 88 c0 3c db d2 eb bd 7c e3 7b 3d 4a 29 91 bd
       0.023502469 -0.11514827 0.061496243 -0.070879534
0002b0 a2 37 b4 bd da 2b 9e bd 70 88 20 3d 7e a1 c5 3d
       -0.087996736 -0.07723208 0.039192617 0.09649943
0002c0 0c 5f b9 bd 5e bc 55 bd d3 34 d3 bd e0 7c 46 bc
       -0.09051332 -0.052181594 -0.1031281 -0.012114733
0002d0 52 8e a8 bd d0 0c a6 3c f4 9b 8d bd 02 de b1 3d
       -0.082302704 0.020269781 -0.06914511 0.08684923
0002e0 9a 8e 95 bd d0 98 25 bd 92 5d ca 3d ec 1a a1 bd
       -0.0730259 -0.040428936 0.09881128 -0.07866463
0002f0 92 54 56 bd 08 fb e5 bc a0 9f fd bb ba a7 db bd
       -0.052326746 -0.028073803 -0.007739976 -0.10725351
000300 bd 25 b6 bd 62 60 bc 3d d4 b2 54 3d 34 85 49 bd
       -0.08893917 0.09198071 0.051928356 -0.049199298
000310 99 1f 64 bd 8a 89 7e bd 48 6b 98 3d 8c 09 3e 3d
       -0.055694196 -0.062142886 0.07442337 0.046395823
000320 a0 4e dc 3d 38 99 de bc fe 93 c1 bd c0 4a fe 3a
       0.10757184 -0.02717267 -0.094520554 0.0019400939
000330 b6 b7 e7 3d c0 f8 e9 3d c8 77 fc 3c a2 2f 8d 3d
       0.11314337 0.114243984 0.030818835 0.06893851
000340 60 0c 56 bc f0 95 e6 3d 1a 7a a1 3d 74 d4 e4 3d
       -0.013064474 0.11259067 0.07884617 0.11173335
000350 56 b0 83 bd 34 e0 8a 3d a5 bb e6 bd 46 77 d7 3d
       -0.06430118 0.067810446 -0.11266259 0.105207965
000360 d0 fd dc 3d e2 06 de bd 82 b5 73 bd 40 60 1c 3c
       0.107905984 -0.108411565 -0.05949927 0.009544432
000370 b8 42 0f bd 6e 39 99 bd da 3e 9a 3d 9a 7e 93 bd
       -0.034975737 -0.07481657 0.07531519 -0.07201882
000380 cc 99 de bc
       -0.027172945

gating_networks.0.fc_layer.bias f4 [3]
000000 d8 b9 9e 3c 9a ce ea 3d dc 06 8e 3d
       0.019375727 0.11465187 0.06934902

gating_networks.1.filters.0.weight f4 [25, 1, 3, 1]
000000 e4 72 36 3e b4 1a da be 10 69 00 bf 94 5b 01 3f
       0.17817265 -0.42598498 -0.5016031 0.5053036
000010 c2 7e c5 3e 68 54 03 3f 99 b5 10 bf 64 f7 88 3e
       0.3857327 0.5130067 -0.56527096 0.26751244
000020 a0 40 07 3f 14 12 13 be 24 18 b4 be ce 8a 03 bf
       0.52832985 -0.14362365 -0.35174668 -0.51383674
000030 0c d3 d7 be 4e 93 0f be d0 b7 0a 3f 90 ce 86 3d
       -0.42153203 -0.14021036 0.54186726 0.065823674
000040 aa 72 c9 3e 46 ec 82 be ba 88 ba 3e 22 66 9d be
       0.39345294 -0.25570887 0.3643244 -0.30741984
000050 0a 82 8c be a8 90 12 3f fa 42 c1 3e 00 f6 f7 3e
       -0.27442962 0.5725198 0.37746412 0.4842987
000060 2e 9f 06 bf 40 3c 41 3e ad 4a bd be c0 68 2e 3c
       -0.5258664 0.1887064 -0.36971036 0.0106450915
000070 90 a4 99 be 18 95 c6 3d 80 b3 95 bb 11 f4 8e be
       -0.30008364 0.09696406 -0.004568517 -0.27920583
000080 62 ed 4b be 40 e4 7e 3e eb 6c 02 bf 48 46 f0 3e
       -0.19914773 0.24891758 -0.50947446 0.4692862
000090 a0 1d 71 bd 90 38 b3 be 58 2c f1 3d 6c a2 3c 3e
       -0.058866143 -0.3500409 0.11776036 0.18421334
0000a0 fc 29 46 3e 9e 4d a5 3e 00 d9 7d bd 80 fe ef bb
       0.19351953 0.3228578 -0.061974525 -0.00732404
0000b0 3c 60 07 3f 29 f9 01 bf 9e c0 bc be 90 2f d8 3d
       0.52881217 -0.50770813 -0.36865705 0.10555947
0000c0 06 6a fe be a4 af 06 3f 3a f5 63 be 08 11 a9 3d
       -0.49690264 0.52611756 -0.22261515 0.082552016
0000d0 a3 32 9c be 4c 80 18 3e 2a e0 1f be ca 11 97 be
       -0.30507383 0.14892691 -0.15612856 -0.2950576
0000e0 d8 14 e1 3e 88 9e 89 3d 78 0c e4 bd 64 13 00 bf
       0.43961215 0.067196906 -0.11135191 -0.5002959
0000f0 20 16 e0 3d a6 ee d9 be ee ec ba 3e ba 20 b6 3e
       0.1094172 -0.42564887 0.36508888 0.35571843
000100 50 4a b4 3d 14 e6 f4 be b4 29 d5 3e a0 c6 8e bd
       0.088032365 -0.47831786 0.4163338 -0.069714785
000110 c4 de 18 3e f0 1e b4 3d be ed a5 be 00 74 5d bc
       0.14928728 0.08794963 -0.32407945 -0.013516426
000120 04 17 fd 3e 24 3f 9c be a0 df fc bc
       0.49431622 -0.30516922 -0.030868351

gating_networks.1.filters.0.bias f4 [25]
000000 00 4d 79 bd 00 5d 12 3f 00 30 3b 3a 28 7d 89 bd
       -0.06086445 0.57173157 0.00071406364 -0.06713325
000010 fc 3d c6 bd c0 65 e4 3e ac 8f 30 be 60 80 dd 3d
       -0.09679791 0.4460888 -0.17242306 0.10815501
000020 f4 26 ea 3e bc 5b fd be 2d d0 93 be 78 cd ae 3e
       0.45732844 -0.4948405 -0.28869763 0.34141135
000030 2a a7 c1 be 2c 1a 56 be 4c 9a fe be 70 5c 6c 3e
       -0.3782285 -0.20908421 -0.49727094 0.23082137
000040 80 20 9f 3c 0e 15 fc be a0 0b 36 3d 1c 54 bb 3e
       0.019424677 -0.49234813 0.04444468 0.36587608
000050 b3 35 0d bf 00 10 33 3c 74 ac 58 be 48 ba ec 3e
       -0.55160064 0.010929108 -0.21159536 0.4623587
000060 9c e8 3a 3e
       0.18252796

gating_networks.1.filters.1.weight f4 [25, 1, 4, 1]
000000 70 82 c8 bd e0 61 33 3e 9c 50 97 be ee 40 ad be
       -0.09790504 0.17517805 -0.29553688 -0.338386
000010 ae a1 fe 3e 20 c5 7e 3d 58 02 d7 3d 84 85 f2 3e
       0.49732727 0.06219971 0.10498494 0.4736749
000020 3a 21 f9 be 90 f0 59 be 00 00 64 ba a0 09 ba 3e
       -0.48658162 -0.21283174 -0.000869751 0.36335468
000030 0c de 95 3e 74 09 65 3e 00 40 da b9 c8 f8 28 be
       0.2927097 0.22366887 -0.00041627884 -0.16501153
000040 98 35 ca 3d 2e dd e9 be 34 a7 24 3e be ae 8a be
       0.098735034 -0.4567656 0.16079408 -0.27086443
000050 70 99 bb 3e 56 8e 96 3e 08 c1 b5 be fa b8 b6 be
       0.366405 0.2940547 -0.35498834 -0.35688
000060 f6 c3 9f 3e ca a9 ad be f4 b8 01 be d0 5c f6 bd
       0.31204194 -0.339186 -0.1266821 -0.12029421
000070 f0 0e 36 3e b8 df cf be e8 a0 8d bd 4c 56 bd 3e
       0.17779136 -0.4060037 -0.06915456 0.36979902
000080 e8 72 c4 3e 58 39 d0 bd 9c c7 0a be e2 33 94 be
       0.38368917 -0.101671875 -0.13552707 -0.28945833
000090 9a a0 be be e0 a1 e5 be 7c 22 be be 08 af e1 be
       -0.37231904 -0.44850063 -0.37135684 -0.4407885
0000a0 32 f0 e9 be e0 6e 07 be da 51 bb 3e e0 f8 86 bd
       -0.45691067 -0.13225889 0.36585885 -0.06590438
0000b0 68 1d 99 3d 76 6f a1 be d8 bd 9b 3e 04 a5 68 3e
       0.07476312 -0.3153035 0.30418277 0.22719198
0000c0 70 f6 ba 3d 64 1d 18 3e 90 36 37 bd 6c 57 a9 be
       0.091290355 0.14854962 -0.04472977 -0.3307451
0000d0 7a bc e8 3e 58 70 83 3d 50 34 2d 3d 7c 29 10 be
       0.45456296 0.06417912 0.042286217 -0.14078325
0000e0 18 f3 c4 3d 66 30 bc be 9e 62 a5 be d0 8d da 3d
       0.09616679 -0.36755675 -0.323018 0.1067158
0000f0 2a 36 b6 3e 50 76 47 bd 08 08 ce bd f0 55 12 bd
       0.355882 -0.048696816 -0.100601256 -0.035726488
000100 d0 b7 37 be 70 4a ce 3d 02 63 e8 be 3c 51 0e be
       -0.17941213 0.100727916 -0.45388037 -0.13898176
000110 e0 ab e1 bc 32 ba 9a be 70 8e 9a bd 06 76 f3 3e
       -0.027547777 -0.3022018 -0.07546699 0.47550982
000120 46 fc 82 be 5c f9 69 be d8 d7 f3 3d 0c 09 63 be
       -0.25583094 -0.2284903 0.11906403 -0.2217142
000130 d0 c5 69 3d 68 30 68 be 80 2e 1c 3c fc ea be 3e
       0.057073414 -0.22674716 0.009532571 0.37288654
000140 dc f4 27 be 50 5e ff bd 18 15 2c 3e fe 94 a2 3e
       -0.16402 -0.124691606 0.16804922 0.31754297
000150 0c 02 70 be b4 53 4b 3e 88 91 63 be 36 9a ec be
       -0.23438281 0.19856149 -0.22223485 -0.46211404
000160 fc 9b 54 3e ac cc e8 3e e8 8e ca be 00 3b 86 3e
       0.20762628 0.45468652 -0.39562154 0.26216888
000170 24 9d 07 3e 54 19 62 be d4 16 4d be 04 b9 ef 3e
       0.13243538 -0.22079974 -0.2002824 0.46820843
000180 5c 80 00 be a0 8a a7 bd 5c e1 ff 3e 00 c4 1a 3d
       -0.12548965 -0.081807375 0.49976623 0.037784576

gating_networks.1.filters.1.bias f4 [25]
000000 2c 6e a3 3e 00 42 02 3e 5a 0c ce be 42 f6 a9 3e
       0.31919992 0.1272049 -0.40243798 0.33195692
000010 ae d1 c1 be 60 33 47 3d ae 9b b5 3e 80 bf 10 3e
       -0.37855285 0.04863298 0.35470337 0.14135551
000020 cc e2 3b be b4 7b 6f 3e 16 a3 fa be 20 c8 c4 bd
       -0.18348235 0.23387033 -0.4895255 -0.09608483
000030 68 99 d7 3d a8 5f 2c 3e 20 29 05 3e f6 5f b5 be
       0.10527307 0.16833365 0.13003969 -0.35424775
000040 2c cd e0 be b6 c0 cf be d4 c0 df be f8 f7 52 be
       -0.43906534 -0.40576714 -0.43701804 -0.20602405
000050 58 a8 b3 be 16 88 ec be e8 d9 b8 bd e2 af b0 be
       -0.35089374 -0.46197575 -0.09025937 -0.34509188
000060 5a 27 fd 3e
       0.49444085

gating_networks.1.filters.2.weight f4 [25, 1, 5, 1]
000000 4c cf 00 be a2 9f a0 be b7 3a 6e be 48 ac 5f 3e
       -0.12579077 -0.3137179 -0.23264585 0.21843064
000010 a0 3e 74 be 60 fc 3c 3e dc 5b 70 3e c8 f7 13 3e
       -0.23852015 0.18455648 0.23472542 0.1444999
000020 fa ff b9 3e 62 f5 8d 3e fb 7d 68 be d4 c3 98 3e
       0.36328107 0.27726275 -0.22704308 0.29836905
000030 fb a3 d2 be 48 d3 dd 3d c9 98 89 be e0 85 27 3d
       -0.41140732 0.10831314 -0.26874378 0.040899158
000040 5e 33 8c be 10 1e 39 be 20 f9 20 bd 24 61 6b be
       -0.2738294 -0.18077874 -0.039300084 -0.22986275
000050 e8 79 54 bd 00 48 dd b9 0e ad 73 be 2a 27 a4 3e
       -0.05187407 -0.0004220605 -0.23796484 0.3206113
000060 6e c3 84 3e 00 79 7c 3d 60 a2 c4 3d 20 5f 96 be
       0.2593035 0.061638832 0.09601283 -0.2936945
000070 3c 51 c2 3e b4 0d 9b bd 1a 83 0e be c1 1b 64 be
       0.37952602 -0.07570973 -0.13917199 -0.22276212
000080 68 80 b9 3e cc 01 bb be 7c 69 c1 be 69 38 69 be
       0.3623078 -0.36524808 -0.3777579 -0.22775425
000090 80 98 0f 3c 68 c3 aa 3d b2 09 9d be 60 cb ec 3c
       0.008764386 0.08338052 -0.3067146 0.02890557
0000a0 00 a0 47 ba 64 a4 97 be e6 2b d3 be 20 ec 51 3e
       -0.00076150894 -0.29617608 -0.4124443 0.20500231
0000b0 e2 93 8b 3e f0 ee d9 be c6 27 ab be 48 24 35 3e
       0.27261263 -0.42565107 -0.33428782 0.17689621
0000c0 5a 8c b3 3e 36 c1 a9 3e 80 23 00 3e 5b 4a 70 be
       0.35068017 0.3315522 0.12513542 -0.23465864
0000d0 a0 b2 88 be f4 e3 b3 3e 0c ee 14 be d4 f5 90 3e
       -0.2669878 0.35134852 -0.14543933 0.28312552
0000e0 6a bb 9e be a6 34 4f be 9a 75 b6 be b0 33 8c 3d
       -0.3100236 -0.20234928 -0.35636598 0.06845796
0000f0 e8 4e 9d bd 68 78 7f bd c2 2e 18 be 38 e0 a6 be
       -0.07681066 -0.062370688 -0.14861587 -0.3259294
000100 37 fa ab be 80 86 2c 3e cc 89 9d be 7c 8c 10 3e
       -0.33589336 0.16848183 -0.30769193 0.1411609
000110 fc 21 1e 3e 6a 1f 94 3e 2e 44 b6 3e 84 ae 7b 3e
       0.15442652 0.28930217 0.35598892 0.24578291
000120 04 cb c8 3e e8 84 2a 3e d0 2d 4b 3e c9 da 7c be
       0.3921739 0.16652262 0.19841695 -0.24692835
000130 80 97 8f 3e 00 1d c5 3b d8 ee 9e bd aa ff 8c 3e
       0.28045273 0.00601542 -0.077603996 0.27538806
000140 86 5f e4 3e d6 9c cd 3e c2 2f 88 be b6 2b 37 be
       0.4460413 0.4015872 -0.26598936 -0.17887768
000150 22 dc ad 3e 26 df 67 be 6c a0 5d 3e a0 c2 3b be
       0.3395701 -0.22643718 0.21643227 -0.18335962
000160 f8 fb 2a 3e 70 e2 9b 3d 4f b4 d5 be 38 a1 b0 3d
       0.16697681 0.07611549 -0.41739127 0.086245
000170 f0 2d 2a 3d 38 4a 7d 3e 56 cd 07 be 2f b6 ac be
       0.041547716 0.24735343 -0.13261923 -0.33732745
000180 88 1a ae bd 34 8a d7 3e 90 0d 44 bd 4a ec a7 be
       -0.08501154 0.42097628 -0.047864497 -0.32797462
000190 ec 4e 09 be a0 c2 47 be c0 ff f9 3d 04 f5 a6 be
       -0.13409013 -0.19507837 0.122069836 -0.32608807
0001a0 b7 04 d8 be 8d 67 91 be b4 e3 09 be 6e fd cc 3e
       -0.42191097 -0.28399315 -0.13465768 0.40037102
0001b0 af 97 a8 be 20 fc 24 bd 48 14 72 3e b4 3c 08 3e
       -0.32928225 -0.040279508 0.23640549 0.13304406
0001c0 c8 c8 e8 bd 90 45 de be 4a bc a1 3e 5e b6 c1 be
       -0.11366421 -0.43412447 0.31588966 -0.37834448
0001d0 83 5b 56 be 00 f9 c0 3a 90 00 03 bd 74 e0 d5 3e
       -0.20933346 0.0014722645 -0.03198296 0.41772807
0001e0 30 7a ba 3d a8 f5 0f bd fa 33 dd 3e f8 fe d5 3d
       0.09105337 -0.035146385 0.43203717 0.10449022
0001f0 b8 26 bf 3e
       0.37334228

gating_networks.1.filters.2.bias f4 [25]
000000 fa 07 a7 be 00 b0 4f b9 ba 7f 8f 3e 48 84 94 3e
       -0.32623273 -0.00019806623 0.28027135 0.29007173
000010 4c b2 af be 0c 19 d5 3e 4c f8 ce bd ca e4 e3 3e
       -0.34315717 0.41620672 -0.101059526 0.4451049
000020 c8 4a a8 3d 1c c6 8e 3e 1c e2 21 be 8c 59 b3 be
       0.082173884 0.2788552 -0.1580891 -0.35029256
000030 48 0d 61 be c6 77 9d 3e 64 f2 6d be ac e1 ba 3e
       -0.21977723 0.30755442 -0.23236996 0.365003
000040 40 23 c2 3d 21 14 d5 be ac 43 d1 3e 38 7a fa 3d
       0.0947938 -0.4161692 0.40871942 0.122303426
000050 20 14 57 be b0 9d 5b 3d 08 e9 24 3e c4 8f 2d 3e
       -0.21003771 0.05361718 0.1610452 0.16949373
000060 88 f3 69 3e
       0.22846806

gating_networks.1.fc_layer.weight f4 [3, 75]
000000 72 c3 9b bd 60 99 78 3c bc a1 7e 3d 58 05 16 3c
       -0.076056376 0.015173286 0.06216596 0.0091565475
000010 09 d3 7e bd e0 19 30 bb f0 e6 8d 3d 30 90 68 3d
       -0.062212978 -0.0026870891 0.069288135 0.056778133
000020 b7 fd e3 bd f5 26 89 bd df ed 83 bd 17 69 6b bd
       -0.11132377 -0.066968836 -0.06441855 -0.05747327
000030 94 48 41 3d 7e 15 ab bd c0 f4 df bb 88 de 8f bd
       0.047188357 -0.08353709 -0.0068345964 -0.07024866
000040 40 b8 b5 3b 8c 27 59 3d 90 2a 07 bd a1 10 b6 bd
       0.005545646 0.05301623 -0.032999575 -0.088898905
000050 c0 1e 5b 3c e6 7a c8 3d c4 92 aa 3d 7e 9e 27 bd
       0.013374031 0.09789066 0.083287746 -0.040922634
000060 28 89 2d bd 68 3d 82 3d 9a ae 99 bd a7 ba 62 bd
       -0.04236713 0.063593686 -0.07504006 -0.055353787
000070 22 61 86 bd ae c6 e6 3d 0a 61 c2 bd 9c cc b8 3d
       -0.06561495 0.11268364 -0.09491165 0.09023401
000080 3e 08 9d 3d 50 5a a5 3d 08 ee a8 bd 00 32 0f 3c
       0.07667588 0.08073866 -0.08248526 0.008739948
000090 bc b3 8a bd fc 34 df 3d 70 a8 82 3d a0 07 d9 bc
       -0.06772563 0.10898778 0.06379783 -0.026492894
0000a0 b0 93 e0 bd b1 ac b6 bd b0 5f 36 bd 04 af de bd
       -0.10965669 -0.08919657 -0.04452485 -0.10873225
0000b0 ca a1 55 bd e6 78 ea bd 9c 1b 37 3d 88 3b 9d bc
       -0.052156247 -0.11448841 0.044704065 -0.019193426
0000c0 4c b6 79 3d 2a 83 df bd 1e 6c e9 3d b8 a5 05 bc
       0.060964867 -0.109136894 0.11397575 -0.008157186
0000d0 b4 bf 90 3d 9a 6a d3 3d 4c c5 b1 3d 64 ea 3e bd
       0.070678145 0.10323067 0.086802095 -0.04661025
0000e0 23 6c 65 bd d3 64 8a bd 2a 0b ae 3d be 63 96 3d
       -0.05601133 -0.06757512 0.08498223 0.07343243
0000f0 30 13 bc 3b 60 21 46 3d 7a 09 dc 3d a0 37 d1 bc
       0.005739592 0.048371673 0.10743995 -0.02553922
000100 2a 7d d9 bd 8b fb 72 bd b8 41 04 bc 70 05 b1 3c
       -0.10619576 -0.05932192 -0.008072309 0.021609038
000110 c0 47 ba bb 06 5b c8 3d fc 74 4d 3d 28 ed 8d bd
       -0.005684823 0.09782986 0.050160393 -0.069299996
000120 e9 05 6d bd 46 bb 3e bd 7c 09 a6 bd c0 8e 26 bb
       -0.057866964 -0.046565317 -0.08107278 -0.0025414675
000130 16 c2 98 bd 7c 0a 97 bd d0 15 c1 bc ba 4f e8 3d
       -0.07458894 -0.073750466 -0.023569971 0.11343332
000140 45 5a c2 bd b8 42 b2 3c 30 8e d5 3d 4c 53 0a 3d
       -0.09489874 0.02176033 0.10427511 0.033770844
000150 d0 bf 24 3c f6 18 c2 3d ed 89 7b bd 3a db d4 bd
       0.010055497 0.09477417 -0.061410833 -0.10393377
000160 a4 82 bf bd 3e 47 b7 3d 3a db ac bd c0 2f 8a bc
       -0.093510896 0.08949135 -0.08440252 -0.016868472
000170 44 e9 ca bc 04 6a cc bd 9f 26 ec bd 1e fc a3 bd
       -0.024769433 -0.099811584 -0.11530804 -0.08007072
000180 88 7c a0 bd 52 9a a5 3d 3e f3 0f bd 35 da da bd
       -0.078362525 0.08086075 -0.035144083 -0.10686151
000190 b1 44 db bd ba af 12 bd be 6e d7 3d 6a 67 43 bd
       -0.10706461 -0.035812117 0.10519169 -0.047706045
0001a0 e1 73 6d bd a0 a3 b8 3c 80 8e 30 3b 00 73 ef bb
       -0.05797184 0.02253896 0.0026940405 -0.0073074102
0001b0 6f 5e 8e bd 39 3d d1 bd 54 94 66 3d 18 32 53 bc
       -0.069516055 -0.102167554 0.0562938 -0.012890361
0001c0 b8 a4 c6 3d 30 b5 04 3d 56 4a ca bd 26 f4 a4 3d
       0.09699386 0.032399356 -0.0987746 0.0805438
0001d0 a8 af 17 3c 90 6e cd 3c 0c ea 11 3d 5a c7 c0 bd
       0.009258188 0.025077134 0.035623595 -0.09413023
0001e0 1a 5d b9 3d f1 dd 95 bd 01 82 bb bd 43 6b c3 bd
       0.09050961 -0.073177226 -0.09155656 -0.09541943
0001f0 74 64 31 bd 26 20 cd 3d 26 d3 d6 3d 51 a6 bf bd
       -0.04330869 0.100158975 0.10489492 -0.09357894
000200 48 48 6e bc b0 19 a4 3c b8 f2 c7 bc 40 de 04 3d
       -0.0145436 0.02003178 -0.02440773 0.032438517
000210 ce 76 b4 bd e0 0f 76 3c 64 5f a9 3d 80 13 b8 bc
       -0.08811723 0.015018433 0.082701474 -0.022470236
000220 38 4f 63 3d 58 b6 06 3d bc 89 8c 3d 36 5f 59 bd
       0.05549547 0.03288874 0.06862208 -0.053069316
000230 4e c9 cb 3d 40 c4 c3 bc 1c 74 b1 bc 20 f9 ff 3b
       0.09950505 -0.02389729 -0.02166181 0.0078116804
000240 b0 b9 87 bd b8 ef 98 3d 60 da d6 3c a0 e1 be bd
       -0.06627214 0.07467598 0.026227176 -0.09320378
000250 80 3c 82 bb 6c b7 01 3d 72 41 01 bd 30 34 12 3d
       -0.0039744973 0.031669065 -0.031556554 0.0356943
000260 a0 1a a7 3d 84 16 25 3d b0 38 cf bb 70 12 ca bb
       0.08159375 0.040304676 -0.0063238963 -0.0061667487
000270 12 93 23 bd 4a 83 15 bd 46 85 94 3d e0 cb 28 3b
       -0.03993518 -0.03650216 0.072519824 0.0025756285
000280 10 5d e7 3c 3b 92 74 bd 48 ed 85 bd 5e df 36 bd
       0.028242618 -0.05970977 -0.065393984 -0.044646613
000290 c8 20 e5 3c 1a 45 8b bd 68 0a 9d bc 50 96 d3 bc
       0.027969733 -0.068002895 -0.019170001 -0.02582851
0002a0 d8 1e 20 bd ac 1f 06 bd e8 a5 78 bd 60 06 95 3b
       -0.039091915 -0.03274505 -0.060705096 0.004547879
0002b0 aa 21 dc 3d 78 8f 2a bd 40 97 22 bb c8 bc dd 3c
       0.107486084 -0.04164073 -0.002480939 0.027067557
0002c0 3c 52 06 3d 02 59 8d bd fc a6 42 3d 54 88 1b 3d
       0.03279327 -0.069017425 0.04752253 0.03797181
0002d0 5c ca c8 3d ae b6 45 bd 38 e9 e7 3c f4 52 c0 3d
       0.09804222 -0.04826992 0.02830945 0.09390822
0002e0 ec de 91 bd 54 9c 2f 3d 60 98 76 bb d4 df 1d bd
       -0.07122597 0.042873695 -0.0037627444 -0.038543537
0002f0 a7 f8 e0 bd ca 39 ba bd 20 17 d9 3c f8 d5 97 bc
       -0.10984927 -0.09093054 0.026500285 -0.018534645
000300 84 e1 d2 3d 96 61 c1 bd 00 af 4f bd c8 27 ce bd
       0.1029692 -0.09442441 -0.050704002 -0.100661814
000310 74 8e c9 3d 2a dc b3 3d 80 6a bc 3b 1a 35 a2 bd
       0.09841624 0.08782227 0.0057500005 -0.079202846
000320 f0 cf 18 bd 88 ac ab 3d 6e 44 80 3d 64 c4 e3 bd
       -0.03730768 0.08382517 0.06263052 -0.11121443
000330 00 11 3a 3b e2 8e ca 3d 46 15 81 3d e8 6a 21 bc
       0.002839148 0.09890534 0.06302886 -0.009852149
000340 18 c8 3d bc 38 6a d5 bc 12 e3 da bd 16 90 9d 3d
       -0.011583351 -0.026051626 -0.106878415 0.07693498
000350 e8 0e b7 3d 24 5c a3 bc a4 5e 2b bd 50 45 48 3d
       0.0893839 -0.019941397 -0.041838303 0.048894227
000360 ca 1d 7f bd 5c ba 04 3d 74 a0 05 3d 20 c0 ba bd
       -0.06228427 0.03240429 0.032623723 -0.09118676
000370 fa e1 14 bd a4 0f ac bd d8 ae c4 3d 2c 03 5b 3d
       -0.03634832 -0.08401421 0.09603661 0.05346982
000380 62 e3 bf 3d
       0.09369542

gating_networks.1.fc_layer.bias f4 [3]
000000 98 74 00 3d 9e 8a c4 bd 60 59 b0 3d
       0.031361192 -0.09596752 0.08610797

gating_networks.2.filters.0.weight f4 [25, 1, 3, 1]
000000 b0 cf d0 be d0 45 22 3e 18 15 1d be ac ea f7 3e
       -0.40783453 0.15846944 -0.15340078 0.48421228
000010 7e fe b2 3e 98 68 08 3f 40 8c 29 bd 8f 48 90 be
       0.34959787 0.532846 -0.04139352 -0.28180358
000020 96 4c d6 3e 78 a2 bf bd 9e 40 74 be 31 b7 89 be
       0.41855305 -0.0935716 -0.23852775 -0.26897576
000030 ac 11 99 3e 38 21 8d be a0 6b b1 3d c0 cc db 3e
       0.29896295 -0.27564406 0.08663106 0.4292965
000040 34 d7 e0 3e bc 4b dc 3e 20 77 95 3d eb ba 0d bf
       0.43914187 0.4302653 0.07298112 -0.5536334
000050 f6 ea 10 3f 7a c9 49 be 70 d1 d8 3e a0 4c 49 bd
       0.5660852 -0.19705763 0.42347288 -0.04914534
000060 50 46 0e 3f 14 93 7c be 28 69 0a 3e 6f 25 ea be
       0.5557604 -0.24665481 0.13516676 -0.45731685
000070 a8 5e 11 3f 22 a9 af be 9c 35 52 3e 32 90 b4 3e
       0.5678506 -0.34308726 0.20528263 0.35266262
000080 14 44 1c be fc c4 dd bd 66 83 46 be 10 3b 83 3d
       -0.15260345 -0.108285874 -0.19386062 0.0640775
000090 e8 c5 af be b8 ab 13 bf 62 24 54 be da 67 9a 3e
       -0.34330678 -0.57683897 -0.20717004 0.30157357
0000a0 66 4d 8a 3e 20 33 59 be da ee d9 be 28 6f a8 bd
       0.27012175 -0.21210909 -0.42565042 -0.08224326
0000b0 34 cb 72 3e 64 9a c0 be de ad 29 be 74 bf 40 3e
       0.23710328 -0.3761779 -0.16570231 0.18823034
0000c0 a4 9d 51 be 54 27 c8 3e 30 45 5b bd 3a 8a ac 3e
       -0.20470291 0.39092505 -0.05353278 0.33699208
0000d0 c8 c4 c1 3e 02 d4 79 be c4 25 79 3e fc 9c a5 be
       0.37845445 -0.24397281 0.24330813 -0.32346332
0000e0 a0 7a b1 3d 30 c6 f3 be 70 ce 3a 3d 02 de 9b 3e
       0.08665967 -0.47612143 0.04560703 0.30442816
0000f0 e0 a3 ea be 78 61 0e bf a6 3e 50 be 74 be 4a be
       -0.45828152 -0.55617476 -0.20336398 -0.19799215
000100 64 10 d7 be 28 f7 4d 3e 10 18 26 3e 96 1d c1 3e
       -0.42004693 0.20113814 0.16220117 0.37717885
000110 3c 83 d1 be 8e b1 dc be 21 17 fd be cc 28 19 3e
       -0.40920436 -0.43104213 -0.49431708 0.14956969
000120 0c 6d 98 3e d8 f5 82 be 82 92 57 be
       0.29770696 -0.2557819 -0.21051982

gating_networks.2.filters.0.bias f4 [25]
000000 00 76 ab 3b f6 d3 d9 be 66 19 c8 3e 0e 21 0a 3f
       0.0052325726 -0.42544526 0.39081877 0.5395669
000010 78 57 46 3e 3c 71 3d 3e 16 12 96 3e 07 4f 84 be
       0.19369304 0.18500227 0.29310673 -0.25841543
000020 40 23 8d 3c ee 75 67 be 7c fc c5 3e 40 76 15 3d
       0.017228723 -0.2260358 0.38669193 0.036489725
000030 ec 63 fe 3e d0 01 06 3d 18 53 9c bd 54 84 b0 be
       0.4968561 0.032716572 -0.076330364 -0.34475958
000040 90 be 43 3e 78 80 9d 3d 4c 50 aa bd 38 57 33 3e
       0.19115663 0.07690519 -0.08316097 0.1751374
000050 d4 9f e0 bd 31 e5 cb be b4 e6 dc 3e 98 ed 95 be
       -0.10967985 -0.39823297 0.43144763 -0.29282832
000060 fc b8 b1 be
       -0.34711444

gating_networks.2.filters.1.weight f4 [25, 1, 4, 1]
000000 a0 2f 85 3c 0e 58 80 be e4 f2 3c be 0c f9 8a 3e
       0.016258061 -0.2506718 -0.1845203 0.27143133
000010 18 2c 97 3d 18 30 eb 3e f8 9e 92 be 30 51 75 3e
       0.07381457 0.4593513 -0.2863691 0.23956752
000020 c0 2b 1b 3e 48 49 11 3e 80 16 62 bd b6 0c a6 3e
       0.15153408 0.14188111 -0.05519724 0.32431573
000030 a8 ef 05 be 8e f0 bd 3e e6 67 d1 3e b8 db b6 3d
       -0.13079703 0.3709759 0.4089958 0.08928627
000040 c0 a7 d1 be 84 d6 3a be 0c 4a b8 be dc a9 a2 be
       -0.40948296 -0.18245894 -0.35993993 -0.31770217
000050 10 09 bf bd 7c 66 aa be b2 7c c9 3e fc 07 0d 3e
       -0.093279004 -0.33281314 0.39352947 0.13772577
000060 28 6b 43 3e 1e 54 a0 be ba 56 d7 3e 48 63 2f 3e
       0.19083846 -0.31314176 0.42058355 0.17127717
000070 f2 36 f4 3e b0 bf 2d 3e 1c 40 04 be 94 0a f3 be
       0.4769817 0.16967654 -0.12915081 -0.47469008
000080 ec 4b 74 be 64 24 0d be 70 53 f3 3d 94 a7 f6 3e
       -0.23857087 -0.13783413 0.11881149 0.48174727
000090 88 5f 7f be 38 8e 9c 3d a8 78 23 be 54 f4 69 3e
       -0.24938786 0.076443136 -0.15963995 0.2284711
0000a0 00 4c e2 ba 20 a6 64 3d 9c aa f5 be 9a 0a ed 3e
       -0.0017265081 0.05582249 -0.47981727 0.4629715
0000b0 e4 ff ae be 04 22 a4 be 78 4e 7f 3e 1a 82 93 be
       -0.34179604 -0.32057202 0.24932277 -0.28810197
0000c0 f6 b4 fa be 74 42 f6 be 54 1a 53 3e b8 e5 4d 3e
       -0.48966187 -0.48097575 0.20615512 0.20107162
0000d0 ea 62 c9 3e 4c 63 25 be 4a e4 e6 be 08 50 f6 3d
       0.39333278 -0.1615116 -0.45096046 0.120269835
0000e0 d8 c5 47 3e 10 14 0d 3d 6c cc 9a 3e 1c 1e a4 3e
       0.19509065 0.03444296 0.30234087 0.32054222
0000f0 f6 7d dd be e2 07 b0 3e b2 51 f8 3e e0 8d 9f 3e
       -0.43260163 0.34381014 0.4849983 0.3116293
000100 20 4a ac bc 20 80 39 3d 50 29 29 bd 3a f3 c1 3e
       -0.02103144 0.045288205 -0.041299164 0.3788088
000110 ec 63 b4 3e ec 6d 4e be 12 92 aa 3e a0 37 e5 3e
       0.35232484 -0.2015912 0.33314568 0.44769
000120 c0 9f 8c be f4 de 38 be fc c7 b4 be 54 94 25 be
       -0.2746563 -0.180538 -0.35308826 -0.16169864
000130 9c 12 38 be 20 9d 74 3e 3a 5c b5 3e 80 45 c2 3c
       -0.17975849 0.23888063 0.35421926 0.02371478
000140 a0 de d4 3e d0 38 79 bd 08 c8 cf be 70 e4 23 3e
       0.415761 -0.060845196 -0.405823 0.1600511
000150 7e ce 9a be 44 a8 54 3e be 50 c4 3e 20 82 4f bd
       -0.30235666 0.20767313 0.3834285 -0.050661206
000160 96 e6 e0 3e 30 27 a2 bd 98 b0 22 be 94 88 39 3e
       0.43925923 -0.07917631 -0.15887678 0.18118507
000170 88 46 c8 3e 34 34 25 be 3a 89 94 3e d8 85 a0 3e
       0.3911631 -0.16133195 0.29010946 0.31352115
000180 f4 7d f2 3e 78 ca cd bd 6e 5d 85 be 18 38 44 3e
       0.4736172 -0.100483835 -0.26047844 0.19162023

gating_networks.2.filters.1.bias f4 [25]
000000 90 01 54 be 60 46 2e 3e c8 72 ed bd c0 c2 58 3e
       -0.20703721 0.17019033 -0.115941584 0.21168041
000010 20 05 d6 bd 4c 45 e6 be 74 43 57 3e 22 f2 a9 be
       -0.10450196 -0.44974744 0.21021825 -0.33192545
000020 b6 ea a4 3e d0 7b 38 3e 04 9f eb be 30 2e e6 be
       0.3221032 0.1801598 -0.46019757 -0.44957113
000030 80 52 86 be ea 55 a7 be 80 a8 46 3d 42 9e e8 be
       -0.26234818 -0.32682735 0.048500538 -0.4543324
000040 da 8d 82 3e 0c 42 d9 3e d8 04 2c be 18 d0 dd 3e
       0.2549885 0.42433202 -0.16798723 0.43322825
000050 ce e4 db be 8c 64 cb be 30 36 08 3e 68 85 e9 3d
       -0.42948002 -0.3972515 0.13301921 0.11402398
000060 9e ec bc 3e
       0.36899275

gating_networks.2.filters.2.weight f4 [25, 1, 5, 1]
000000 30 88 fa bd 12 94 6d be a8 fb c8 3e 1c cd ba be
       -0.12233007 -0.23201016 0.39254498 -0.3648461
000010 12 7a 2b be fc 50 f8 bd c4 c0 28 be c4 9f 27 be
       -0.16745785 -0.121248215 -0.16479784 -0.1636954
000020 f4 35 97 be 1a 1b c0 be 48 6a c9 3e fe 60 14 be
       -0.2953335 -0.37520677 0.393389 -0.14490125
000030 3e 68 90 be 69 4e 79 be 24 b7 72 3e 4a 0b 95 3e
       -0.2820453 -0.24346317 0.23702675 0.29110175
000040 e0 18 11 bc d8 84 a2 3e b8 32 3a 3e 0a 02 1f be
       -0.008856028 0.31741977 0.1818341 -0.15528122
000050 a5 81 5a be a2 a3 bb be 58 de 4d bd bc d5 a7 bd
       -0.21338518 -0.3664828 -0.05026087 -0.081950635
000060 50 85 a0 bc dd 5c 64 be 2a 9e b5 be 74 a5 83 3e
       -0.019594818 -0.2230105 -0.35472232 0.25712168
000070 e0 4d 8b bd b8 47 6e bd 18 25 86 be d0 1f d9 bc
       -0.06801963 -0.058173865 -0.26200175 -0.026504427
000080 60 01 9d 3e 90 da cf 3e 05 5c c5 be ba f1 d7 be
       0.30665112 0.40596437 -0.38546768 -0.4217661
000090 2e fc a8 be b0 42 2b 3e fe 81 99 be 50 29 93 3d
       -0.33004898 0.16724658 -0.2998199 0.07185614
0000a0 68 35 94 3e 5e 99 ae 3e ae 05 b0 be 24 fa d2 be
       0.28946996 0.34101385 -0.34379333 -0.41206467
0000b0 a7 d8 b6 be d6 8c ce 3e 5e a8 8f be 38 8c 3a 3d
       -0.35712168 0.40341824 -0.2805814 0.04554388
0000c0 00 54 03 3c 10 d9 3a 3d f4 f9 d9 3e 90 e3 72 3e
       0.008015633 0.045617163 0.42573512 0.2371962
0000d0 90 b2 8b 3c 6e 7a 8d 3e 0f 2e 73 be 32 1a 7e be
       0.017052919 0.2763247 -0.23748039 -0.2481468
0000e0 f4 02 2a 3e 6a 2a 98 be e9 9b 7d be 7b 2b b5 be
       0.16602689 -0.2971986 -0.24766506 -0.35384735
0000f0 10 ba 68 bd dc a4 1d be f4 0f ca 3e d0 51 30 be
       -0.056818068 -0.1539492 0.39465296 -0.17218709
000100 18 1e a8 be 7d d3 d1 be 70 ec 40 3e c0 d0 9b 3c
       -0.3283546 -0.40981665 0.18840194 0.019020438
000110 80 68 5e 3c d4 3b 34 3e 4f c6 9b be 8e 1e 80 be
       0.013574719 0.17600948 -0.30424735 -0.2502331
000120 de 38 a2 be db 30 d1 be 28 74 b6 be 60 3a 4a bc
       -0.3168401 -0.40857586 -0.35635495 -0.012343019
000130 5c 7c 81 bd c0 e3 aa bc a9 ac d2 be 20 0b 94 3c
       -0.06322548 -0.020860553 -0.41147354 0.018071711
000140 09 e8 76 be d0 94 c9 3d 80 7b ca bc 1c e1 c0 bd
       -0.24111952 0.09842837 -0.024717093 -0.09417936
000150 78 d4 87 be fc dd f7 bd d6 6a 89 3e ea dc a1 3e
       -0.26529288 -0.12102887 0.26839322 0.31613857
000160 ca 9c 12 be aa 36 88 be 9a a8 bc 3e 8e b1 9c be
       -0.14317623 -0.26604205 0.36847383 -0.30604213
000170 20 11 53 bd 10 29 a6 3d 80 89 1d bc ac cf f1 bd
       -0.051530004 0.08113301 -0.009615302 -0.118071884
000180 6c a3 22 3e 60 17 13 bc d8 4c 9c 3d ec 9e 01 3e
       0.15882653 -0.008977741 0.07631844 0.1265828
000190 bc b2 cb 3e 00 c6 28 3e c0 f7 98 3d 71 e1 df be
       0.397848 0.16481781 0.074691296 -0.43726686
0001a0 68 d3 5a 3e 58 56 a3 3d 28 70 83 be 06 40 d6 be
       0.21369708 0.07975453 -0.25671506 -0.4184572
0001b0 09 43 53 be d0 cc cf bd 6c a8 6e 3e 00 1c df 39
       -0.2063104 -0.10146487 0.23306435 0.00042554736
0001c0 39 78 de be a0 f2 76 3d d8 df dc 3e 34 e2 b1 be
       -0.43451098 0.06028998 0.4313953 -0.34742892
0001d0 9e 62 af 3e a0 a5 40 bc 70 76 d8 bc fc ac cb 3e
       0.34254926 -0.011758238 -0.026423663 0.39780414
0001e0 96 54 a6 3e 4c 94 29 3e f8 62 01 3e d1 80 6f be
       0.3248641 0.16560477 0.1263541 -0.23388983
0001f0 48 93 e2 3d
       0.11063248

gating_networks.2.filters.2.bias f4 [25]
000000 94 b7 e3 be a0 2f 63 3e 53 a5 a2 be 2c 62 89 3e
       -0.44475996 0.22186136 -0.31766757 0.26832712
000010 2a 72 b4 be 14 67 40 3e 98 20 d2 3d a6 00 b3 be
       -0.3524335 0.18789321 0.10260123 -0.34961432
000020 e0 49 37 bc c0 05 e4 bd 54 c5 93 3e 34 74 ad be
       -0.011187047 -0.11133909 0.28861487 -0.33877718
000030 88 88 35 3d 1c dd d2 3e 50 34 4f be f8 b7 0b bd
       0.04431966 0.41184318 -0.202348 -0.034110993
000040 0a de ca 3e 40 82 12 be da a9 aa 3e 70 0a 07 bd
       0.39622527 -0.14307499 0.3333271 -0.03296894
000050 1c 8b 02 3e 6e c6 c3 3e 84 90 e1 3e 10 f2 c4 3e
       0.12748379 0.38237327 0.4405557 0.3846593
000060 c5 c6 8c be
       -0.274954

gating_networks.2.fc_layer.weight f4 [3, 75]
000000 98 1b bc bc 9f f3 9d bd 4c ee 18 bd 86 06 ae 3d
       -0.022962376 -0.07712483 -0.037336633 0.08497338
000010 9e c0 a3 bd 8c 6b a3 3d 78 64 e3 bc f3 e9 8c bd
       -0.07995723 0.07979497 -0.027757868 -0.0688056
000020 45 56 82 bd 20 e1 19 bb 30 93 19 3d 1f c1 85 bd
       -0.06364111 -0.0023480132 0.037493885 -0.065309756
000030 c0 13 9d 3b e0 68 f7 bc e6 24 23 bd e0 8e 2a 3d
       0.004793614 -0.030201375 -0.03983011 0.041640162
000040 bc 36 b2 bc a3 22 c4 bd ba 4e 3b bd 98 8a dd 3c
       -0.021754615 -0.09576919 -0.045729376 0.027043626
000050 f0 28 f9 3b d4 25 4d 3d 20 ea 5c 3c 0a 04 e5 3d
       0.007603757 0.050084904 0.013483554 0.11182411
000060 cf 3a 63 bd 50 63 9c bc 00 e8 29 38 28 80 6b bd
       -0.055476006 -0.019090325 4.0508807e-05 -0.057495266
000070 12 e9 e4 3d 80 2a d1 3d c4 99 cb bc 1b a9 93 bd
       0.11177267 0.10213184 -0.024853595 -0.07209989
000080 fe 14 ca 3d 92 5d 0d bd 0a ab 3f bd 74 c9 a9 bd
       0.09867285 -0.034513064 -0.046793975 -0.08290377
000090 0c 6e 99 3d 2a 2b bc 3d 20 78 44 3c e0 8a 2a bc
       0.07491693 0.091879204 0.011991531 -0.010409087
0000a0 32 56 7b bd 53 d2 b3 bd a2 ad 8d 3d 8e 25 93 3d
       -0.0613615 -0.087803505 0.069178835 0.07184897
0000b0 4d a0 7e bd 20 27 dc 3c e4 cb 63 3d 60 c3 f3 3b
       -0.062164593 0.026874125 0.055614367 0.007439062
0000c0 78 0c b9 3c 70 6b be 3b 28 97 7c bd 80 12 3b bd
       0.022588953 0.0058111474 -0.06166759 -0.04567194
0000d0 1c f9 99 bd 05 64 b6 bd 30 a4 36 3d d0 82 3a bd
       -0.07518217 -0.08905796 0.044590175 -0.04553491
0000e0 de 96 e4 3d d2 8b 8e 3d 58 df 85 3c 54 ec 9f 3d
       0.11161588 0.06960262 0.01634185 0.07808748
0000f0 08 85 df 3c 7c 7a 4a 3d e8 11 6d bd 30 bf 33 3c
       0.027285114 0.049433216 -0.057878405 0.010970876
000100 14 19 51 3d 50 3e 51 bd c8 38 33 3d 70 00 aa bd
       0.051049307 -0.051084816 0.043755323 -0.08300865
000110 20 a6 1f 3b 20 68 c9 bc 2c a0 33 3d 0c 9c d6 bc
       0.0024360493 -0.024585783 0.043853924 -0.026197456
000120 00 e1 b3 3a 36 1a 15 bd 28 f8 2c bc ca cb b9 bd
       0.0013723671 -0.03640195 -0.010557212 -0.09072073
000130 00 e9 b6 3a 14 a3 1c 3d 2a d4 73 bd 38 a4 21 3d
       0.0013954937 0.03824146 -0.059528507 0.03946325
000140 ec df 4d 3d 2c c4 54 3d d8 dc 18 3c ea 5d e7 3d
       0.050262377 0.051944897 0.009329997 0.112972096
000150 d2 5d 9e 3d 42 35 66 bd 4f 77 61 bd d8 d9 04 bd
       0.077327386 -0.056203134 -0.055045422 -0.032434314
000160 b9 00 cc bd e8 91 32 3d 8c 52 b3 bd c0 c0 e7 bd
       -0.09961075 0.04359618 -0.08755979 -0.11316061
000170 36 76 a8 3d 6c 95 01 bd ef 37 e2 bd 98 2d 3a bd
       0.08225672 -0.03163664 -0.11045825 -0.045453638
000180 28 1d 6a bc fe b4 cc 3d 63 b5 d7 bd b0 13 8b bb
       -0.014289178 0.09995459 -0.10532644 -0.0042442903
000190 40 15 d3 bd 84 fd c6 bc 44 e0 8b bd 6c 15 58 3d
       -0.103067875 -0.024290808 -0.06829885 0.052754804
0001a0 a8 f1 a2 3c 66 a3 c0 3d 36 e9 c7 3d 8c 4b 87 bd
       0.019890621 0.09406166 0.09761278 -0.06606206
0001b0 67 3b d6 bd 4c a7 8f bd 10 7d 07 3d 5a 4a aa 3d
       -0.10460549 -0.07014331 0.033078253 0.08314963
0001c0 26 f3 c9 3d 2a a4 82 bd ee 0c b8 3d 9f f4 eb bd
       0.0986083 -0.06378968 0.08986841 -0.11521267
0001d0 80 ed b3 ba 7c 58 a7 3d 92 49 cd 3d 30 bf f5 bb
       -0.0013727397 0.08171174 0.10023798 -0.007499598
0001e0 c0 21 39 3b 3a d6 96 3d 0c 3f 5b bd 10 a9 d6 bc
       0.0028248876 0.07365079 -0.053526923 -0.026203662
0001f0 a2 41 83 3d 48 76 c0 3d f0 e9 da bd f8 5c ae bd
       0.06409003 0.0939756 -0.10689151 -0.08513826
000200 60 34 35 3c d8 7c d3 3d 8c 45 7d bd a8 c4 98 3c
       0.01105985 0.103265464 -0.061833903 0.01864846
000210 c2 4b c3 3d 06 3e 51 bd d8 33 ab 3d c8 8c e5 3c
       0.09535934 -0.05108454 0.08359498 0.028021231
000220 50 ef ce bd 00 bf 47 3d 2c 4c 62 3d fe 80 cc 3d
       -0.10104239 0.048766136 0.055248424 0.09985541
000230 38 05 fd bc 5d a8 a4 bd e8 a0 ed 3c aa 52 48 bd
       -0.030886278 -0.08039925 0.02900739 -0.04890696
000240 62 ab 85 3d b8 3a 39 3d 6d 73 74 bd f0 39 d8 bd
       0.06526829 0.045222014 -0.05968039 -0.10557926
000250 b2 64 bd 3d 72 b9 c2 bd 9c df d4 bd e0 83 21 bd
       0.09247722 -0.09508027 -0.103942126 -0.039432406
000260 2c f1 bb 3d ea 63 af 3d 50 e5 63 3d 9a 13 46 bd
       0.09176859 0.08563979 0.05563861 -0.048358537
000270 d0 56 ec bb 80 33 97 3d 64 7a 45 3d 04 d9 55 bd
       -0.0072124973 0.0738287 0.048212424 -0.052208915
000280 98 0f d5 3c e0 06 0b bc a0 1e 84 3d 2c d5 11 3d
       0.026008412 -0.008485526 0.06451154 0.035603687
000290 c0 9c e0 ba 04 a2 c3 bd a6 67 dd 3d 40 fb a5 3a
       -0.0017136559 -0.095523864 0.10810785 0.0012663379
0002a0 7a fb 97 bd 80 8e 2b bc 38 24 af 3d 84 64 74 bd
       -0.07421012 -0.010470986 0.0855183 -0.05966617
0002b0 68 48 a6 bc c8 20 43 3d 8c e4 05 3d 88 9d b4 3d
       -0.020298198 0.047638685 0.032688662 0.08819109
0002c0 a6 cb cc 3d 90 d8 3e 3c f0 f6 2e 3d 44 03 b8 3d
       0.0999978 0.011648312 0.042715967 0.08984998
0002d0 b4 83 04 bd 5e d3 56 bd 00 40 4b 3d 88 bd 05 bd
       -0.032352164 -0.05244767 0.049621582 -0.032651454
0002e0 72 0a 17 bd 8e 2d e4 3d 03 38 8b bd 0c e6 89 3d
       -0.036875196 0.11141501 -0.06797793 0.06733331
0002f0 20 34 0e bd 96 c7 df bd 62 0e 23 bd 18 f0 57 3d
       -0.03471768 -0.1092674 -0.03980864 0.052719206
000300 f6 ee d1 3d 20 15 54 3b fe 4d c0 3d 8b 0b ba bd
       0.10250656 0.0032361224 0.09389876 -0.09084233
000310 a8 85 c4 3c 04 56 da bd 7c f9 a3 bc 90 d4 1a 3d
       0.023989514 -0.106609374 -0.020016424 0.03780037
000320 ee 23 c6 bd 4b 10 61 bd f0 03 94 bc 8c 89 90 3d
       -0.09674822 -0.05494718 -0.018068284 0.07057485
000330 b6 cb dc bd 10 fb c7 3b a7 0a db bd 91 26 7e bd
       -0.10781042 0.006102927 -0.10695391 -0.0620485
000340 80 b0 56 3d 46 26 a9 bd 04 3f 58 3d f8 6f bf 3c
       0.052414417 -0.08259253 0.05279447 0.02336882
000350 1e 16 c0 bd 7e 59 97 bd a6 8f df 3d 00 63 bd b9
       -0.093792185 -0.07390116 0.10916071 -0.0003612265
000360 d4 11 e0 bc d0 30 f0 bc e8 c8 65 bd 80 15 7d 3c
       -0.027352251 -0.02932015 -0.056099802 0.0154470205
000370 a8 6b d8 bd c8 9c 1d 3d 70 b5 4c bc 70 3d 45 bc
       -0.10567409 0.038479596 -0.01249443 -0.012038574
000380 c0 8f 1a 3d
       0.037734747

gating_networks.2.fc_layer.bias f4 [3]
000000 22 b0 ae 3d d4 01 58 bd 4c c1 7e bd
       0.085296884 -0.05273612 -0.06219606
