test_data/model.pt (torch_old, 506298 bytes, 54 tensors)

gating_networks.0.filters.0.weight f4 [25, 1, 3, 1]
0	0x3d722fd0	0.05912763
1	0x3e8eefc6	0.27917308
2	0xbdef10a4	-0.11673096
3	0xbe2ce972	-0.16885927
4	0x3e02e4f8	0.12782657
5	0x3e5591c8	0.20856392
6	0xbe720522	-0.2363477
7	0xbeaf9d3f	-0.34299657
8	0x3e8faec4	0.28063023
9	0x3e59577c	0.21224779
10	0xbd4064c0	-0.046971083
11	0xbc002400	-0.007821083
12	0x3ebdb464	0.3705169
13	0xbf10acb1	-0.56513506
14	0xbdc50368	-0.0961979
15	0xbde98fd8	-0.11404389
16	0x3e519c70	0.20469832
17	0x3ebdb9e6	0.37055892
18	0xbd2b6020	-0.04183972
19	0x3ee0e554	0.43924963
20	0xbe3c6362	-0.18397287
21	0xbeab60fe	-0.33472437
22	0xbd9d23e0	-0.07672858
23	0x3ec97b64	0.39351952
24	0x3e90cc7a	0.28281003
25	0xbe015516	-0.12630114
26	0xbd00d0c0	-0.03144908
27	0x3f0875b4	0.533046
28	0x3e8abf84	0.2709924
29	0x3f0aecda	0.54267657
30	0xbea4d6a8	-0.3219502
31	0x3edaaee4	0.42711556
32	0xbee0112e	-0.43763107
33	0x3e8cfca2	0.27536494
34	0xbe2eaa02	-0.1705704
35	0xbecc8f3d	-0.39953032
36	0x3da09498	0.07840842
37	0xbeffeeca	-0.4998687
38	0xbe76dff0	-0.24108863
39	0x3f0c538a	0.5481497
40	0x3f0f9454	0.56085706
41	0xbe707220	-0.23481035
42	0x3e612d1c	0.21989864
43	0xbdc92ad8	-0.09822625
44	0x3ee7d3f8	0.45278907
45	0xbeec1728	-0.46111417
46	0x3e2dccbc	0.16972631
47	0x3e705254	0.23468906
48	0x3e22f9c4	0.1591559
49	0x3ea39612	0.31950432
50	0xbe39b03a	-0.18133631
51	0xbc1a9100	-0.009433985
52	0x3e949074	0.2901646
53	0xbeb1c300	-0.34719086
54	0x3eb6b6e4	0.3568641
55	0x3d6172b0	0.055041015
56	0xbeeb77f3	-0.45989951
57	0x3ecbf636	0.39836282
58	0x3d1c9f70	0.03823799
59	0xbebd6efe	-0.36998743
60	0x3ef3ec9c	0.47641456
61	0x3da559e8	0.08073789
62	0x3f03ae5a	0.51437914
63	0x3eeaeb10	0.45882463
64	0xbe658424	-0.22413689
65	0x3f004210	0.50100803
66	0x3ecdf87a	0.40228635
67	0xbe5e2c4e	-0.21696588
68	0xbf00373f	-0.500843
69	0x3f132604	0.5747988
70	0x3e5c7a80	0.21531105
71	0x3ef841a0	0.48487568
72	0xbe4ef3ca	-0.20210186
73	0xbe88dedf	-0.26732537
74	0xbee9fdf2	-0.45701557

gating_networks.0.filters.0.bias f4 [25]
0	0xbd0d7da0	-0.034543633
1	0x3ed67c1c	0.41891563
2	0xbe96534a	-0.2936042
3	0xbe99bb8f	-0.30025908
4	0x3e02d9d8	0.12778413
5	0x3e8bd6aa	0.27312213
6	0xbcec4160	-0.028839767
7	0x3da85668	0.08219606
8	0x3de3b030	0.111175895
9	0xbe6c3564	-0.23067242
10	0xbdb917f8	-0.09037775
11	0xbeb2957b	-0.3487967
12	0xbeac9805	-0.33709732
13	0xbe43624e	-0.19080469
14	0x3e27c220	0.16382647
15	0xbefda524	-0.49540055
16	0xbe8aa207	-0.27076742
17	0xbef51f4c	-0.4787544
18	0xbedab0ec	-0.42713106
19	0x3e949b76	0.29024857
20	0xbe4d7f66	-0.2006813
21	0x3ed29a7a	0.4113348
22	0x3da7fb88	0.08202273
23	0xbd769fc0	-0.060210943
24	0xbeee0b60	-0.46493053

gating_networks.0.filters.1.weight f4 [25, 1, 4, 1]
0	0xbe35c14c	-0.17749518
1	0x3efe72d4	0.49696982
2	0xbe031b50	-0.12803388
3	0x3e974162	0.2954207
4	0xbef88ba4	-0.48544037
5	0xbe8b20e2	-0.27173525
6	0x3e1e242c	0.15443486
7	0x3eba35a8	0.3636906
8	0xbee28788	-0.44244027
9	0x3e2f6a0c	0.17130297
10	0x3ef3a436	0.4758622
11	0x3edf16b6	0.43572015
12	0x3dacd688	0.08439356
13	0x3ed086f0	0.4072795
14	0x3e6ce168	0.2313286
15	0xbdab0538	-0.08350605
16	0xbe8d2aa6	-0.275716
17	0xbc3cc700	-0.011522055
18	0xbddcb438	-0.107765615
19	0x3e55aae4	0.20865971
20	0x3e48f5d0	0.1962502
21	0xbe807fe8	-0.25097585
22	0x3e240b98	0.16020048
23	0x3e839a9c	0.25703895
24	0x3ecc2626	0.39872855
25	0x3e31a074	0.17346364
26	0xbcf547e0	-0.0299415
27	0x3d430a80	0.047617435
28	0xbd63cf60	-0.05561769
29	0x3db57818	0.08860797
30	0x3e406c8c	0.18791407
31	0xbe812e32	-0.25230557
32	0xbec0636e	-0.3757586
33	0xbec7857c	-0.38969028
34	0xbe19abd4	-0.15006953
35	0x3d21fa60	0.039545417
36	0xbeee2ca8	-0.46518445
37	0xbdf62220	-0.120182276
38	0xbe3ce2a0	-0.18445826
39	0x3d3d2a00	0.046182632
40	0xbeb129a4	-0.34602082
41	0xbed205e2	-0.41020113
42	0x3d967f28	0.07348472
43	0x3da93410	0.08261883
44	0x3e4daf18	0.20086324
45	0xbd4594e0	-0.04823768
46	0x3ec1d2b0	0.37856054
47	0xbe9ebb00	-0.31002045
48	0x3df37040	0.11886644
49	0xbe8fa16e	-0.2805285
50	0x3cd0c0e0	0.025482595
51	0xbed34f90	-0.4127164
52	0xbe614ba4	-0.22001511
53	0x3e3b8bc0	0.18315029
54	0xbef11c72	-0.47092015
55	0xbeda7914	-0.426705
56	0xbea8abb0	-0.32943487
57	0x3eac90ce	0.33704227
58	0x3ee701a2	0.45118433
59	0x3e1e01b8	0.15430343
60	0x3e7e586c	0.24838418
61	0xbec41610	-0.38298082
62	0xbeec45de	-0.46147054
63	0xbef81e40	-0.4846058
64	0x3eeacd1a	0.45859605
65	0x3ec4b4ac	0.38419092
66	0xbdba07c8	-0.090835154
67	0x3df37fc0	0.11889601
68	0x3e4262c8	0.18982995
69	0x3ec0510c	0.37561834
70	0x3eb963e2	0.36209017
71	0x3dc0ba78	0.09410566
72	0xbef3d8e2	-0.47626406
73	0x3eb0a272	0.34498936
74	0x3e2cc8ec	0.1687352
75	0xbec9faca	-0.3944915
76	0x3d96e810	0.07368481
77	0x3e971d10	0.2951436
78	0xbe9c535a	-0.30532342
79	0x3e8b5a1a	0.2721718
80	0x3e3d01a4	0.18457657
81	0x3ea282ce	0.3174042
82	0xbed4b098	-0.4154098
83	0x3ec3f488	0.382725
84	0x3ee682fc	0.45021808
85	0xbeb2abbe	-0.34896654
86	0xbef167ea	-0.47149593
87	0xbeb55178	-0.35413718
88	0xbe7d3ee8	-0.24731028
89	0xbead6dd0	-0.33872843
90	0xbdc59168	-0.09646875
91	0x3d127d70	0.035764158
92	0x3d253d90	0.040341914
93	0x3eb75844	0.3580953
94	0x3edd361c	0.43205345
95	0x3e60276c	0.21890038
96	0x3d8d8570	0.06910217
97	0x3e346db0	0.17619967
98	0x3e995800	0.2994995
99	0xbe28ceb8	-0.16485107

gating_networks.0.filters.1.bias f4 [25]
0	0x3da25250	0.07925856
1	0xbe4b3bf8	-0.19847095
2	0x3ebc9f28	0.36840177
3	0xbd5e6ca0	-0.05430281
4	0x3e5dd7a0	0.21664286
5	0xbe65e4a8	-0.22450507
6	0xbdbc2380	-0.091864586
7	0xbe3e49e4	-0.18582875
8	0xbd8ce088	-0.068787634
9	0x3d0aa280	0.03384638
10	0x3e40ff9c	0.18847507
11	0xbec4f6be	-0.384695
12	0x3e8c4238	0.2739427
13	0x3dc916b8	0.098187864
14	0x3ec33982	0.38129812
15	0xbe3fd020	-0.18731737
16	0x3e3159b0	0.1731937
17	0xbcca6260	-0.024705112
18	0x3ebe8380	0.37209702
19	0xbdcf9a68	-0.101368725
20	0xbda15aa8	-0.078786194
21	0x3c7da640	0.015481532
22	0xbce37480	-0.027765512
23	0xbed5f9f4	-0.41792262
24	0x3e36b5e0	0.17842817

gating_networks.0.filters.2.weight f4 [25, 1, 5, 1]
0	0xbeb9c7c1	-0.36285213
1	0xbeda667a	-0.42656308
2	0xbec96d5d	-0.3934125
3	0x3d653e00	0.05596733
4	0x3e51b994	0.20480949
5	0xbe09f36c	-0.13471764
6	0xbeb69bca	-0.35665733
7	0xbcf445a0	-0.029818356
8	0xbdaebe64	-0.08532408
9	0xbe8da371	-0.27663758
10	0xbdf976e8	-0.12180883
11	0x3ed31238	0.41224837
12	0x3e05c69c	0.13064045
13	0xbde91b90	-0.1138221
14	0xbe9e1688	-0.30876565
15	0x3ed70478	0.41995597
16	0xbe6f0dd7	-0.23345123
17	0xbe5a0f77	-0.21294962
18	0x3ceaab90	0.02864626
19	0x3d274f18	0.040846914
20	0x3df2c6c8	0.11854321
21	0x3eb4414a	0.35206062
22	0xbd896ecc	-0.06710586
23	0x3dde9510	0.10868275
24	0x3e151088	0.14557087
25	0xbede8cee	-0.43466896
26	0x3be62b80	0.0070242286
27	0x3e707c98	0.23485029
28	0xbe6f530c	-0.23371524
29	0x3dad8b40	0.084738255
30	0xbe525936	-0.20541844
31	0x3cc0cbc0	0.023534656
32	0x3ec97fd0	0.39355326
33	0xbed9e3a3	-0.42556486
34	0x3e991c80	0.29904556
35	0xbe2d3f0e	-0.16918585
36	0x3e18eba4	0.1493364
37	0x3da8b798	0.08238143
38	0xbd1eaf70	-0.03874153
39	0xbdc988d4	-0.09840551
40	0xbe0433d0	-0.1291039
41	0x3ed409ec	0.4141382
42	0x3e85f944	0.26166737
43	0x3e650a50	0.22367215
44	0x3ebab7e4	0.36468422
45	0x3e623fc8	0.22094643
46	0xbe67d2c8	-0.22639
47	0xbe3be6e8	-0.18349802
48	0xbea360a0	-0.31909657
49	0xbeab4a82	-0.33455282
50	0x3e883c38	0.26608443
51	0xbea630c4	-0.3245908
52	0x3eb8fc44	0.36129963
53	0x3ec897ac	0.39178216
54	0x3cbc1910	0.02296117
55	0xbd5294f8	-0.0514116
56	0xbe72dfc9	-0.2371818
57	0x3ece1e46	0.40257472
58	0x3c787960	0.015165657
59	0xbe15c39c	-0.146254
60	0xbea99f64	-0.33129418
61	0xbd2239c0	-0.039605856
62	0xbcec6eb0	-0.028861374
63	0xbe3c7e4e	-0.18407556
64	0xbed0493c	-0.40680873
65	0xbe8148a4	-0.25250733
66	0xbdedafd4	-0.11605802
67	0xbe26eb06	-0.16300592
68	0xbe4aa9d6	-0.1979135
69	0xbdf01238	-0.11722225
70	0x3e9b92e8	0.30385518
71	0xbea7f46a	-0.3280366
72	0x3e4ae314	0.19813186
73	0xbea82331	-0.3283935
74	0x3dbba4a8	0.09162265
75	0x3e69c9f4	0.22830945
76	0x3e740ee0	0.238338
77	0x3e36444c	0.1779949
78	0x3ede698c	0.434399
79	0x3e7c0934	0.24612886
80	0xbd8a0480	-0.067391396
81	0x3ec70b86	0.3887598
82	0xbe526f7d	-0.20550342
83	0x3ece52b6	0.40297478
84	0xbddb6a10	-0.10713589
85	0x3ecbf654	0.3983637
86	0x3da2b2e0	0.07944274
87	0xbe3986a4	-0.18117768
88	0x3db2c7d8	0.087295234
89	0xbe486488	-0.195696
90	0x3ec78788	0.3897059
91	0xbed3a6f4	-0.41338313
92	0x3d0d10a8	0.034439713
93	0xbceedb50	-0.02915731
94	0xbedeaaa0	-0.43489552
95	0xbebcfcda	-0.3691166
96	0xbed70755	-0.4199778
97	0x3ebcf894	0.369084
98	0x3edac552	0.42728668
99	0xbec51ac4	-0.38496983
100	0xbec2dfbb	-0.38061318
101	0xbe55b09b	-0.20868151
102	0xbeb71ffa	-0.35766584
103	0x3ec93638	0.39299178
104	0xbea7ea5e	-0.32795995
105	0x3d50fd70	0.051022947
106	0xbe644730	-0.22292781
107	0x3e9baccc	0.3040527
108	0xbec33c9b	-0.38132176
109	0xbc187580	-0.009305358
110	0x3ea69bc6	0.3254072
111	0x3db2ed98	0.08736724
112	0x3ee22fba	0.44177037
113	0xbe820038	-0.25390792
114	0x3dd84930	0.105608344
115	0x3c0c6a20	0.008570224
116	0x3e5e09a0	0.21683359
117	0x3e33131c	0.17487758
118	0x3e75b064	0.23993069
119	0x3eb5fc4c	0.3554405
120	0x3e343aec	0.17600602
121	0x3db08e90	0.08620942
122	0xbea8100b	-0.3282474
123	0x3e834106	0.25635546
124	0x3e0496c4	0.12948138

gating_networks.0.filters.2.bias f4 [25]
0	0x3e9d6484	0.3074075
1	0xbe9d15ce	-0.30680698
2	0xbed4a5ef	-0.41532847
3	0xbe0e40da	-0.13891926
4	0x3deb2db0	0.114833236
5	0x3d2d7028	0.04234329
6	0x3e9e0fb4	0.30871356
7	0x3e13da00	0.14438629
8	0xbd4c2088	-0.04983571
9	0xbea483ad	-0.3213171
10	0x3e7641ec	0.24048585
11	0x3e459e38	0.19298637
12	0xbd8f59ac	-0.069995254
13	0x3e8f2bba	0.27963048
14	0x3e1fca00	0.156044
15	0x3ea04226	0.31300467
16	0x3baa1c40	0.005191356
17	0x3e988466	0.29788512
18	0x3e897d80	0.2685356
19	0xbe3c2004	-0.18371588
20	0x3ee4e4c8	0.44705796
21	0xbd2d76b0	-0.042349517
22	0x3e4e3244	0.20136362
23	0xbdcea8a4	-0.100907594
24	0x3d59a8b0	0.05313939

gating_networks.0.fc_layer.weight f4 [3, 75]
0	0x3dc43fb0	0.0958246
1	0xbd3d6412	-0.046238013
2	0x3de30006	0.11083989
3	0x3dd7e7e6	0.10542278
4	0xbbf5ab40	-0.007497221
5	0x3c3b2900	0.011423349
6	0xbd0c2df8	-0.034223527
7	0x3d5f26a8	0.054480225
8	0x3d177f48	0.03698662
9	0xbd7a85fd	-0.061162937
10	0xbc510a70	-0.012758836
11	0xbdd62204	-0.10455707
12	0x3da48412	0.08033003
13	0xbd9387ce	-0.07203637
14	0xbc07c718	-0.008287214
15	0xbdd1791f	-0.1022818
16	0x3dc4105a	0.09573431
17	0x3da3725e	0.07980798
18	0x3d895952	0.067064896
19	0xbc0c34f0	-0.008557543
20	0xbdd6e504	-0.104929
21	0x3b5a59e0	0.003331773
22	0x3d820ac2	0.06349708
23	0x3be5e8b0	0.007016264
24	0x3dc28192	0.0949737
25	0x3bb92660	0.0056503266
26	0xbd6106a7	-0.054937985
27	0x3dc9f90a	0.098619536
28	0x3d592b80	0.05302
29	0xbde6a7c5	-0.11262468
30	0xbd8a1044	-0.06741384
31	0xbd9d9c6d	-0.076958515
32	0x3d1b6cc0	0.03794551
33	0xbd04e51e	-0.032445066
34	0x3d8172a8	0.06320697
35	0xbd24db32	-0.040248103
36	0x3bc78930	0.006089352
37	0x3db5686a	0.08857806
38	0xbdb9dfcb	-0.09075888
39	0x3cb5bf70	0.022186011
40	0x3c8bce30	0.017066091
41	0x3d6d0120	0.0578624
42	0xbc714870	-0.014726743
43	0x3cc34a58	0.02383916
44	0x3d9ccd9c	0.076564044
45	0x3deb9b48	0.11504227
46	0x3d8d7532	0.06907119
47	0xbd7b8be3	-0.061412703
48	0xbdc88166	-0.09790306
49	0xbde139ee	-0.10997377
50	0xbddf1172	-0.10891999
51	0x3d1935dc	0.03740488
52	0xbcbcfc64	-0.023069568
53	0x3cdbd2f8	0.026833996
54	0xbdd71c44	-0.10503438
55	0xbdc56613	-0.0963861
56	0x3d839480	0.064248085
57	0x3d9bd8fa	0.07609744
58	0xbddeee86	-0.108853385
59	0xbdc99d64	-0.09844473
60	0x3d3249a0	0.043527246
61	0xbd9cb4b3	-0.07651653
62	0xbdbc9662	-0.09208371
63	0xbcd9d318	-0.026589915
64	0x3dc15d96	0.09441678
65	0xbc4dff58	-0.012573086
66	0xbde91dd5	-0.11382643
67	0xbcfcdec4	-0.030867942
68	0x3d7b2f94	0.06132467
69	0x3ca05218	0.019570395
70	0xbd49b390	-0.04924351
71	0xbdc2bd1e	-0.095087275
72	0x3dd5b558	0.10434979
73	0x3d07260c	0.03299527
74	0x3cd0f0c8	0.025505438
75	0x3de2b7b8	0.11070198
76	0xbd47ba2e	-0.04876154
77	0xbd21ffd2	-0.03955061
78	0xbcadf80c	-0.021236442
79	0xbd5c7d62	-0.053830512
80	0x3ade32c0	0.001695238
81	0xbc975f58	-0.01847808
82	0xbb882330	-0.0041545853
83	0x3d98fa00	0.07469559
84	0x3d837e10	0.06420529
85	0xbcb741f4	-0.022370316
86	0xbd03821e	-0.03210651
87	0xba520400	-0.00080114603
88	0x3d9912c0	0.074742794
89	0x3d7f8a30	0.062387645
90	0xbddb25da	-0.10700579
91	0x3dc09bd4	0.09404722
92	0xbcb7c8ac	-0.022434555
93	0xbdac994d	-0.08427677
94	0x3d9dc136	0.07702868
95	0xbd82490e	-0.0636159
96	0xbd87d4d8	-0.066323936
97	0x3dd15068	0.102204144
98	0x3da7e5a2	0.08198096
99	0x3bbd8b30	0.0057844147
100	0xbd370868	-0.04468575
101	0xbce7844c	-0.028261326
102	0xbd0a05c8	-0.03369692
103	0x3dad20dc	0.08453533
104	0xbdbe2295	-0.0928394
105	0xba025380	-0.0004971549
106	0x3db31e44	0.08746007
107	0x3d6025d4	0.054723576
108	0xbdd121fc	-0.1021156
109	0x3d235cec	0.03988354
110	0x3dc3c83a	0.095596746
111	0xbde8b012	-0.11361708
112	0x3d1dffb4	0.038573936
113	0x3dcdfa7e	0.10057543
114	0xbcdd3360	-0.027002037
115	0xbd954483	-0.07288458
116	0xbd933723	-0.07188251
117	0x3d7f5fd4	0.06234725
118	0x3dd27d12	0.102777615
119	0xbdab9ff4	-0.08380118
120	0xbd4c7f2e	-0.049925976
121	0x3d920438	0.07129711
122	0xbdeb7ca2	-0.11498381
123	0xbd0e8236	-0.034792148
124	0xbd717188	-0.058946162
125	0xbd79c05c	-0.060974464
126	0xbd94c528	-0.07264167
127	0xbdd74d9e	-0.10512851
128	0xbc5aedf0	-0.013362393
129	0xbd21c1d8	-0.039491504
130	0xbdaa151c	-0.083048075
131	0xbca08d04	-0.019598491
132	0xbca294b0	-0.01984629
133	0x3cf64a60	0.030064762
134	0xbd914873	-0.07093897
135	0xbdd01516	-0.10160272
136	0xbbe2cbf0	-0.006921284
137	0x3c29bc20	0.010359794
138	0x3c715a60	0.01473102
139	0x3dc8ee00	0.0981102
140	0xbd6a6c27	-0.05723205
141	0x3dced95e	0.10100053
142	0x3dec16c2	0.11527778
143	0xbda63392	-0.08115305
144	0xbbf2d7b0	-0.007410966
145	0xbce678c8	-0.028133765
146	0xbc2b3298	-0.010449074
147	0x39f8bf00	0.00047444552
148	0xbc02fcc8	-0.007994838
149	0x3d8ff350	0.0702883
150	0x3d6c2b64	0.057658568
151	0x3c830d58	0.015997574
152	0xbd73220e	-0.05935865
153	0x3d3f3d00	0.046689034
154	0xbcff2efc	-0.031150334
155	0x3d223584	0.039601818
156	0xbc6ed440	-0.0145769715
157	0xbd9ba8c0	-0.07600546
158	0x3da27b30	0.079336524
159	0xbd453aea	-0.048151888
160	0xbde58497	-0.1120693
161	0xbdd7a02a	-0.10528596
162	0x3dd38fda	0.10330172
163	0x3cc5a6a8	0.02412732
164	0x3dd9e084	0.10638526
165	0x3d63b368	0.055591017
166	0x3dd15cf4	0.102228075
167	0xbd90d576	-0.070719644
168	0xbc82ffc4	-0.0159911
169	0xbc5e8c30	-0.013583228
170	0xbdb8f520	-0.09031129
171	0xbd03a8f8	-0.032143563
172	0xbd929f26	-0.071592614
173	0xbdb01a33	-0.08598747
174	0xbd32742a	-0.043567814
175	0x3d2bf55c	0.04198204
176	0xbd3ab7ba	-0.04558537
177	0x3d857d32	0.0651802
178	0xbd710a21	-0.05884755
179	0x3d1c14f0	0.038105905
180	0xbd64a443	-0.055820715
181	0x3d1f5468	0.038898855
182	0x3d56ab70	0.05240959
183	0xbcaa6ca8	-0.020803764
184	0xbccdb92c	-0.02511271
185	0xbd222366	-0.03958454
186	0x3d03d7e4	0.03218831
187	0x3dbcf54a	0.09226473
188	0xbdc29ebc	-0.095029324
189	0x3d04df74	0.032439664
190	0xbd94fbda	-0.072745994
191	0xbd4056ba	-0.04695771
192	0xbdeb8a88	-0.11501032
193	0xbcd252c4	-0.025674231
194	0xbdb1c9fe	-0.08681105
195	0x3d310848	0.04322079
196	0x3d9c79fe	0.07640456
197	0x3ddebd38	0.10875934
198	0xbd98ddd2	-0.07464184
199	0x3d441114	0.04786785
200	0xbd8e73eb	-0.06955703
201	0x3dd7a262	0.10529019
202	0x3d2742a8	0.040835053
203	0x3d72b828	0.059257656
204	0x3da956c0	0.082684994
205	0xbd4b061c	-0.049566373
206	0xbda77a3a	-0.0817761
207	0xbd892981	-0.06697369
208	0x3cc35f08	0.023849025
209	0x3cdcf350	0.02697149
210	0xbdb7cc38	-0.089744985
211	0x3d6868bc	0.056740507
212	0xbd4d84e0	-0.050175548
213	0x3cdc38a8	0.026882485
214	0xbd05b682	-0.032644756
215	0xbc598e80	-0.013278604
216	0xbd66b920	-0.056328893
217	0xbd75221b	-0.05984698
218	0xbda4b74c	-0.080427736
219	0xbdc7abd6	-0.09749572
220	0x3de7c5d0	0.113170266
221	0x3daa5c3a	0.08318372
222	0x3d21421c	0.039369687
223	0xbdc2c6db	-0.09510585
224	0x3d9418b8	0.07231277

gating_networks.0.fc_layer.bias f4 [3]
0	0xbde31bf9	-0.1108932
1	0xbb53d2a0	-0.0032321587
2	0xbceb417c	-0.028717749

gating_networks.1.filters.0.weight f4 [25, 1, 3, 1]
0	0x3ea08d40	0.31357765
1	0xbeac0390	-0.33596468
2	0x3f0e718c	0.5564201
3	0x3e4a9980	0.19785118
4	0x3e5b2a44	0.21402842
5	0xbf13062c	-0.5743129
6	0xbe4ff7b4	-0.20309335
7	0x3e317bc4	0.17332369
8	0xbd478820	-0.048713803
9	0xbdd8aa68	-0.105793774
10	0xbd25bf40	-0.040465593
11	0x3f021b48	0.5082288
12	0xbdeaab10	-0.11458409
13	0x3eedd4c0	0.46451378
14	0xbea47574	-0.3212086
15	0xbd820450	-0.06348479
16	0x3ea66dc0	0.32505608
17	0xbe56d1a8	-0.20978415
18	0xbd9059d8	-0.07048386
19	0x3d9f6748	0.07783371
20	0xbea30338	-0.31838393
21	0xbd151620	-0.036398053
22	0x3f06b0bc	0.52613425
23	0xbf05c47a	-0.52252924
24	0xbefc9824	-0.49334824
25	0xbe97c50c	-0.29642522
26	0x3ed005e0	0.40629482
27	0xbe802b7c	-0.25033176
28	0xbf13500c	-0.57544017
29	0xbe5210ce	-0.20514223
30	0x3e501ba8	0.2032305
31	0x3e92bb0a	0.28658324
32	0x3d05ea00	0.032693863
33	0xbefcc88e	-0.4937176
34	0xbe0f8c94	-0.1401847
35	0x3e9352da	0.28774148
36	0x3e710d80	0.23540306
37	0x3ede1e6c	0.43382585
38	0x3eb01ace	0.3439545
39	0x3cd8f1e0	0.026482522
40	0xbeed8002	-0.46386725
41	0xbdf24d54	-0.118311554
42	0x3edbdc34	0.4294144
43	0x3c8117a0	0.015758336
44	0xbe676f08	-0.22600949
45	0x3d923d70	0.071406245
46	0xbf0d352c	-0.5515926
47	0xbf020880	-0.5079422
48	0x3ef896b8	0.4855249
49	0x3f01892e	0.50599945
50	0xbed72d00	-0.4202652
51	0x3d8cda88	0.06877619
52	0x3eca926e	0.39564842
53	0xbf02ccfb	-0.51094025
54	0xbd7e7e90	-0.06213242
55	0x3f0d7218	0.5525222
56	0x3ea0f79c	0.3143891
57	0x3efb5c00	0.49093628
58	0x3dcf0f18	0.10110301
59	0x3efaa1d0	0.48951578
60	0xbf00a763	-0.5025541
61	0x3f0c456e	0.5479344
62	0x3e996f64	0.29967797
63	0x3f0fd856	0.5618948
64	0x3e75a7a4	0.23989731
65	0x3e22aa28	0.15885222
66	0x3eb47df4	0.35252345
67	0xbed5502e	-0.41662735
68	0x3ec48354	0.38381445
69	0x3e439d84	0.19103056
70	0xbf0f41aa	-0.5595957
71	0xbe9e3a84	-0.3090402
72	0xbea95b6e	-0.33077568
73	0x3bbdcc80	0.0057922006
74	0xbe9c2e74	-0.3050419

gating_networks.1.filters.0.bias f4 [25]
0	0xbe4aaf88	-0.19793522
1	0xbf00f21a	-0.5036942
2	0x3e5743c8	0.2102195
3	0x3f01d7de	0.5072001
4	0xbe8e64f3	-0.27811393
5	0x3e7f4a00	0.24930573
6	0x3e80c700	0.25151825
7	0xbe95577c	-0.29168308
8	0xbe19c030	-0.1501472
9	0xbd8755a0	-0.066081285
10	0xbebdfaa4	-0.37105286
11	0x3edd29f0	0.43196058
12	0xbedeb0eb	-0.43494353
13	0x3f11c9e8	0.5694871
14	0xbe446be8	-0.19181788
15	0x3d9ed1a0	0.077548265
16	0x3ca90cc0	0.020635962
17	0xbe815b59	-0.25265005
18	0xbe008326	-0.12550029
19	0xbf11baa9	-0.56925446
20	0x3e6f37ac	0.23361081
21	0x3e4ea044	0.20178324
22	0xbeeab0af	-0.45837924
23	0xbe8b0385	-0.27151123
24	0xbe4cc062	-0.19995263

gating_networks.1.filters.1.weight f4 [25, 1, 4, 1]
0	0xbe773fb8	-0.241454
1	0xbe8d1334	-0.27553713
2	0x3d8bea70	0.06831825
3	0xbe741258	-0.23835123
4	0xbeabc8c0	-0.33551598
5	0x3e056efc	0.13030618
6	0x3e6012a8	0.21882117
7	0x3ecb3b8c	0.39693868
8	0x3e9f5b1e	0.31124204
9	0x3ec22fce	0.37927097
10	0x3ee0f26c	0.43934953
11	0x3e99e9ba	0.30061132
12	0xbe86b028	-0.26306272
13	0x3dc4fb60	0.096182585
14	0xbeb3597e	-0.35029215
15	0xbe715140	-0.2356615
16	0x3ed0532c	0.40688455
17	0xbe697bc8	-0.22801125
18	0x3dc434d8	0.09580392
19	0xbe82b574	-0.25529063
20	0xbe5ae230	-0.21375346
21	0xbec0936a	-0.37612468
22	0xbeea74f4	-0.45792353
23	0x3efb0e74	0.49034464
24	0x3e30060c	0.17189807
25	0xbd4029a0	-0.046914697
26	0x3e7f3c70	0.24925399
27	0xbebb6abc	-0.3660487
28	0x3ef92f58	0.48668933
29	0x3e15676c	0.14590234
30	0x3edb4702	0.42827612
31	0x3cea8f80	0.02863288
32	0xbdc15488	-0.09439951
33	0x3e91fa60	0.28511333
34	0x3eb20d6e	0.3477587
35	0x3e54b5ac	0.20772427
36	0xbed54b3e	-0.41658968
37	0xbefbe3e4	-0.49197304
38	0x3e93e812	0.28887993
39	0xbe412530	-0.18861842
40	0xbd1e6600	-0.038671494
41	0xbd08a620	-0.033361554
42	0x3ef3c6a4	0.47612488
43	0x3e89ab36	0.26888436
44	0x3d254060	0.040344596
45	0x3dec31b0	0.11532915
46	0x3e228138	0.15869606
47	0xbe9c3cd2	-0.30515152
48	0xbe3d3ca8	-0.1848017
49	0xbe7f08d8	-0.24905717
50	0x3e495a90	0.19663453
51	0x3c86e9a0	0.016468823
52	0x3ec977fe	0.3934936
53	0x3ef3527c	0.47523868
54	0xbe6fec34	-0.23429948
55	0x3d8c78e0	0.068589926
56	0xbe47d4f8	-0.19514835
57	0x3e4e5250	0.20148587
58	0xbd613f10	-0.05499178
59	0x3ed87df0	0.42283583
60	0xbee3686c	-0.44415605
61	0xbea8e456	-0.32986706
62	0x3ef73fbc	0.48290813
63	0x3eca9196	0.39564198
64	0xbe652964	-0.2237907
65	0x3edd50ee	0.43225807
66	0x3eecd954	0.46259558
67	0xbe864488	-0.2622416
68	0xbe417a98	-0.18894422
69	0x3ea283fe	0.31741327
70	0xbe46d418	-0.19416845
71	0x3e419550	0.18904614
72	0x3d7c2a90	0.06156403
73	0xbef8a668	-0.48564458
74	0xbe3c6f78	-0.18401897
75	0x3e9a942e	0.30191177
76	0xbbd02500	-0.006352067
77	0xbdf34cc0	-0.11879873
78	0x3e606e38	0.21917045
79	0x3edf0736	0.4356019
80	0xbea5d958	-0.32392383
81	0xbe98a29a	-0.29811555
82	0x3ef534e0	0.47891903
83	0xbed2a730	-0.4114318
84	0x3db569b0	0.08858049
85	0xbecfe83e	-0.40606874
86	0x3ec211c2	0.37904173
87	0x3ec92cb6	0.39291924
88	0xbef3d0b2	-0.4762016
89	0xbed5da90	-0.41768312
90	0xbdddcb68	-0.10829812
91	0xbe10c9f8	-0.14139545
92	0xbe7cc59c	-0.24684757
93	0xbefd3fa8	-0.49462628
94	0x3eaeca70	0.34138823
95	0x3efe11c8	0.4962294
96	0xbd89a5d8	-0.06721085
97	0xbeec8b78	-0.46200156
98	0xbdbbc6a0	-0.09168744
99	0x3e1974a4	0.14985901

gating_networks.1.filters.1.bias f4 [25]
0	0x3e8a7166	0.2703964
1	0x3df278f8	0.11839479
2	0xbe2f8b04	-0.17142874
3	0xbec33a5c	-0.38130462
4	0x3ea5ae16	0.3235938
5	0xbe593fe0	-0.21215773
6	0xbd740c80	-0.059582233
7	0xbe974b96	-0.29549855
8	0x3df77d60	0.1208446
9	0xbee6d062	-0.45080858
10	0x3d127ab0	0.035761535
11	0x3dfbe260	0.12299037
12	0x3e4a350c	0.19746798
13	0x3e5ab018	0.21356237
14	0x3de35868	0.111008465
15	0xbe82b226	-0.2552654
16	0x3eba88f0	0.364326
17	0xbe828db0	-0.25498724
18	0x3e667228	0.22504485
19	0xbedd108e	-0.43176693
20	0xbe7e2c54	-0.24821597
21	0x3de21698	0.11039466
22	0x3dde7b90	0.108634114
23	0xbe16d014	-0.14727813
24	0xbe3e87ac	-0.18606442

gating_networks.1.filters.2.weight f4 [25, 1, 5, 1]
0	0x3e97f5a2	0.2967959
1	0x3ed69976	0.41913956
2	0xbe99ae93	-0.30016002
3	0xbe49c92e	-0.1970565
4	0xbea8a199	-0.3293579
5	0xbe462782	-0.19351009
6	0x3e1d6184	0.1536923
7	0xbe79580a	-0.2434999
8	0x3e0f5ca0	0.14000177
9	0x3e1a7e0c	0.15087146
10	0xbe83a909	-0.257149
11	0xbcc7a9a0	-0.024372876
12	0xbecd028e	-0.40041012
13	0x3dfdfb00	0.1240139
14	0x3e4192c4	0.18903643
15	0x3ecf9d72	0.4054981
16	0xbed6cc44	-0.41952717
17	0xbe619cde	-0.22032496
18	0xbd711c78	-0.05886504
19	0xbd8a63ac	-0.06757292
20	0xbed5c568	-0.41752172
21	0xbe677570	-0.22603393
22	0xbe4a5d59	-0.19762172
23	0x3dcc73f0	0.09983051
24	0x3e2a90e8	0.1665684
25	0x3eb79da0	0.35862446
26	0xbe916d24	-0.2840358
27	0xbe215918	-0.15756643
28	0xbed87eb4	-0.42284167
29	0xbc94c9c0	-0.018162608
30	0xbed382fb	-0.41310868
31	0x3e2653f8	0.16242969
32	0xbe888040	-0.26660347
33	0xbd407158	-0.046983093
34	0x3df130d0	0.11776888
35	0xbdd25ea8	-0.102719605
36	0xbe2832f0	-0.16425681
37	0xbe4f4804	-0.20242316
38	0x3cfa4360	0.030549705
39	0xbb2de280	-0.002653271
40	0xbd3603c0	-0.04443717
41	0xbe57dd31	-0.21080472
42	0xbcbb4040	-0.022857785
43	0xbe6e7a66	-0.23288879
44	0x3ebdb77e	0.37054056
45	0xbdc01524	-0.09379032
46	0x3e7844f8	0.2424506
47	0xbed0fc78	-0.40817618
48	0x3d22ca00	0.039743423
49	0xbe9b58a4	-0.30341065
50	0xbd800230	-0.06250417
51	0xbede4344	-0.43410695
52	0xbed3d910	-0.41376543
53	0xbc1c98a0	-0.009557873
54	0xbe68eb5e	-0.22746035
55	0x3e808eba	0.25108892
56	0x3e9900e2	0.29883486
57	0xbe6eac52	-0.23307922
58	0xbd963f80	-0.073363304
59	0xbd58cd58	-0.052930206
60	0x3e4d34c8	0.20039666
61	0xbe8c0f1c	-0.27355278
62	0x3e17b06c	0.14813393
63	0xbe84b3d7	-0.25918457
64	0x3e15bb30	0.14622188
65	0x3e3f33e0	0.18672132
66	0x3e8c1bb2	0.2736488
67	0xbe85fc97	-0.26169273
68	0xbec00928	-0.37506986
69	0x3e723f44	0.23656946
70	0xbd8666f8	-0.065626085
71	0xbde0b298	-0.10971564
72	0x3d7dcb80	0.06196165
73	0xbeb51696	-0.35368794
74	0x3e08a688	0.13344777
75	0xbed14e3c	-0.4088
76	0xbe329b62	-0.17442086
77	0x3ea81b28	0.3283322
78	0xbea644dc	-0.3247441
79	0x3dbdc318	0.09265727
80	0xbe610380	-0.21973991
81	0xbe9833b5	-0.2972695
82	0x3e5b4d7c	0.21416277
83	0x3e1daf5c	0.15398926
84	0x3eda9f92	0.42699867
85	0x3c53ed00	0.012934923
86	0x3eaa49f6	0.33259553
87	0x3e8e5c66	0.2780487
88	0x3c982c50	0.018575817
89	0x3d899b90	0.06719124
90	0x3ebef97a	0.3729971
91	0x3e99afe2	0.30017
92	0xbc92a760	-0.017902076
93	0xbee3b48f	-0.44473693
94	0xbe8f7fb0	-0.28027105
95	0x3e939c70	0.2883029
96	0x3e01c058	0.1267103
97	0xbeab8d48	-0.33506227
98	0xbccc6990	-0.02495268
99	0x3e0d8204	0.13819128
100	0x3d9a5060	0.075348616
101	0xbe1f0d6e	-0.15532467
102	0xbd150ce0	-0.03638923
103	0xbde085cc	-0.1096302
104	0x3c56ad20	0.0131028
105	0x3e8cface	0.275351
106	0xbad09e00	-0.0015916228
107	0xbedf0200	-0.43556213
108	0xbc167e20	-0.009185344
109	0x3e289f9c	0.16467136
110	0x3ee414aa	0.44547015
111	0xbe4c8d1f	-0.19975708
112	0x3e40007c	0.18750185
113	0x3e7ccfe0	0.24688673
114	0x3e47d634	0.19515306
115	0x3dafd5d0	0.085857034
116	0x3d507de0	0.050901294
117	0x3e83932a	0.25698215
118	0xbec6362b	-0.38713202
119	0x3e994ac4	0.29939854
120	0xbe777cae	-0.24168655
121	0xbe29d0fa	-0.16583624
122	0xbe19cc4e	-0.15019342
123	0xbdab9810	-0.08378613
124	0x3e9dae36	0.30796975

gating_networks.1.filters.2.bias f4 [25]
0	0xbe465164	-0.19366986
1	0xbe880c63	-0.2657195
2	0x3c21b9e0	0.009870976
3	0xbe405f22	-0.1878629
4	0x3ee03814	0.43792784
5	0xbce283d0	-0.027650744
6	0xbd506690	-0.05087906
7	0xbd83ec64	-0.06441572
8	0xbee04089	-0.43799236
9	0x3e65ce78	0.22442043
10	0xbe4baae6	-0.19889411
11	0xbe9062a6	-0.28200263
12	0x3df1cfa0	0.118071795
13	0x3b885c80	0.0041614175
14	0x3e904afe	0.28182214
15	0x3ebc6210	0.36793566
16	0xbd84daa0	-0.06487012
17	0xbedf8a23	-0.43660077
18	0x3e5aa720	0.21352816
19	0xbe1ecc8e	-0.15507719
20	0xbea34c06	-0.3189394
21	0x3eb4ffe0	0.35351467
22	0xbe46c0ce	-0.19409487
23	0x3ec313d8	0.38101077
24	0xbd53d420	-0.05171597

gating_networks.1.fc_layer.weight f4 [3, 75]
0	0x3c872028	0.016494825
1	0xbde956e3	-0.113935255
2	0xbc312ef0	-0.010814413
3	0xbccee120	-0.025253832
4	0x3d154a60	0.036447883
5	0x3c2fbeb0	0.010726616
6	0xbc0dd508	-0.008656748
7	0xbd36d6ea	-0.04463855
8	0x3db5e232	0.08881034
9	0xbd82243c	-0.063545674
10	0x3db2d986	0.087328956
11	0xbcaafb2c	-0.020871721
12	0x3af44e40	0.0018639043
13	0x3dd7a0f8	0.10528749
14	0xbdc3dd64	-0.09563711
15	0xbd77d715	-0.060507853
16	0x3d2d5d30	0.0423252
17	0x3d668114	0.056275442
18	0xbddef35c	-0.10886261
19	0x3d55b7a4	0.052177086
20	0x3b9773f0	0.004621975
21	0x3d46ba54	0.04851754
22	0x3daced4a	0.08443697
23	0x3dcc31de	0.09970449
24	0x3d2c9334	0.04213257
25	0x3d6a0cb8	0.057141036
26	0x3c322980	0.010874152
27	0xbd824868	-0.06361467
28	0x3d4cfbb8	0.050044745
29	0xbdb7438a	-0.08948429
30	0x3d902fd2	0.07040371
31	0x3aca7d40	0.0015448704
32	0xbde5921b	-0.11209508
33	0xbd917914	-0.07103172
34	0x3daa078a	0.08302219
35	0xbdaa8a36	-0.08327143
36	0x3db8e5b8	0.090281904
37	0xbc3d6c20	-0.011561424
38	0x3dcd3f8e	0.10021888
39	0xbc7d6950	-0.015467003
40	0x3bd21c20	0.006412044
41	0xbdd32c8d	-0.10311232
42	0x3c59fa60	0.013304323
43	0xbb0dfdc0	-0.002166614
44	0xbd1d3758	-0.038382858
45	0x3d326d74	0.043561414
46	0x3ba188d0	0.0049296394
47	0xbd609194	-0.054826334
48	0xbdb6b24b	-0.089207254
49	0xbd664ff2	-0.056228586
50	0x3d87d156	0.066317245
51	0x3ca5eaf8	0.020253643
52	0xbd906a5f	-0.07051539
53	0xbd3e9396	-0.046527468
54	0xbde8e6a7	-0.113721184
55	0xbc708250	-0.014679506
56	0x3b950b90	0.0045484975
57	0xbd8b7970	-0.06810272
58	0x3d89feac	0.06738028
59	0x3d8760f0	0.06610286
60	0xbd40f9ae	-0.047113113
61	0x3db57056	0.08859317
62	0xbdb2d756	-0.08732478
63	0x3d6c0bfc	0.057628617
64	0xbd0fb6f4	-0.035086587
65	0x3dae2b34	0.08504334
66	0xbddf9335	-0.109167494
67	0xbd5ce14b	-0.053925794
68	0xbd94d266	-0.07266693
69	0xbbdf6be0	-0.0068182796
70	0x3d929eb2	0.07159175
71	0xbd76d3db	-0.060260635
72	0xbdd7d2f6	-0.105382845
73	0x3cde6db0	0.027151912
74	0x3d5fa9f8	0.054605454
75	0x3b41de00	0.0029581785
76	0x3b323c00	0.0027196407
77	0x3dd01d50	0.10161841
78	0xbd0e8500	-0.034794807
79	0x3dbbef1e	0.09176467
80	0x3d91e324	0.07123402
81	0x3d1f75b0	0.038930595
82	0xbd3d2aae	-0.04618328
83	0x3c30ab50	0.010783032
84	0x3d4ee4dc	0.050511226
85	0xbd11affa	-0.035568215
86	0x3cca2268	0.02467461
87	0xbd8789d2	-0.06618084
88	0xbda09cee	-0.07842432
89	0xbdc3f44a	-0.09568079
90	0x3d9b7598	0.075907886
91	0x3d27b0d4	0.04094012
92	0x3d055e10	0.032560408
93	0x3bdfc860	0.0068293065
94	0x3d804162	0.06262471
95	0xbb10bfc0	-0.0022086948
96	0xbd154a1e	-0.036447637
97	0x3c8c2d38	0.017111406
98	0x3d70394c	0.058648393
99	0x3d80ae02	0.06283189
100	0x3dea8282	0.11450674
101	0xbd8b5927	-0.06804114
102	0xbce82c0c	-0.028341316
103	0xbdb25627	-0.087078385
104	0x3d98b890	0.074570775
105	0xbc331460	-0.010930151
106	0x3db12346	0.08649306
107	0xbda77ffe	-0.081787094
108	0xbb717ee0	-0.0036849305
109	0x3d1d5de4	0.03841962
110	0xbcaab45c	-0.020837955
111	0xbd5d6d58	-0.054059356
112	0xbca48c50	-0.020086437
113	0x3caaf848	0.020870343
114	0x3cb98610	0.022646934
115	0xbda8d762	-0.08244206
116	0xbd916efc	-0.07101247
117	0xbde5b2ec	-0.11215767
118	0x3c9d50c8	0.019203559
119	0xbdbba8cc	-0.09163055
120	0xbd292c48	-0.041301996
121	0xbcf29ab8	-0.029614791
122	0xbdcff46a	-0.1015404
123	0xbd746a68	-0.05967179
124	0xbdd7a484	-0.10529426
125	0x3dcae2b2	0.0990652
126	0x3dbe2b9a	0.0928566
127	0xbd6da5c4	-0.058019415
128	0x3dbb78d2	0.09153904
129	0xbd45487a	-0.048164822
130	0xbd849154	-0.06473032
131	0x3ca5c4c8	0.020235434
132	0xbccf99fc	-0.02534198
133	0xbc79c808	-0.015245445
134	0xbd9710a5	-0.073762216
135	0xbd0fc3d0	-0.03509885
136	0xbde96b75	-0.11397449
137	0x3ddc1d06	0.10747723
138	0x3d5a0a18	0.053232282
139	0xbda4ae41	-0.08041049
140	0xbd6e6c88	-0.058208972
141	0x3c31fcf0	0.010863528
142	0x3cf80a50	0.030278355
143	0xbc9a51a0	-0.01883775
144	0xbde79fec	-0.113097996
145	0xbd3ecb24	-0.04658045
146	0xbdb3b2c4	-0.08774331
147	0x3ddd5288	0.10806757
148	0xbde90013	-0.11376967
149	0x3dd118fa	0.10209842
150	0xbd5cdeba	-0.053923346
151	0x3cdf1518	0.027231738
152	0xbd7b3734	-0.061331943
153	0x3d6e7dd4	0.058225468
154	0xbd0a8a74	-0.033823445
155	0x3db7cbea	0.089744404
156	0xbdcb95b4	-0.09940663
157	0x3ca95300	0.02066946
158	0xbd9f9697	-0.077923946
159	0x3d25e794	0.040504053
160	0xbdb85d4a	-0.090021685
161	0xbc9f2904	-0.019428737
162	0xbdb56ab0	-0.0885824
163	0x3ddf0cac	0.10891089
164	0x3c43a140	0.0119403
165	0xbdc1aa95	-0.09456364
166	0xbdc94480	-0.098275185
167	0xbd310d6a	-0.043225683
168	0xbdcbda1d	-0.09953711
169	0xbd8946b0	-0.06702936
170	0xbda64a8c	-0.081196874
171	0xbdd7a4c6	-0.10529475
172	0xbd87f6de	-0.06638883
173	0x3be8c7d0	0.0071038976
174	0xbdebf3fc	-0.11521146
175	0x3dc92864	0.09822157
176	0xbd894aca	-0.06703718
177	0xbd29ef2c	-0.041487858
178	0xbd9303a3	-0.07178428
179	0xbb45a4a0	-0.0030157939
180	0xbd8213de	-0.063514456
181	0xbc69aa00	-0.014261723
182	0x3d55f69c	0.05223714
183	0x3ddfd630	0.10929525
184	0x3d1fd914	0.03902538
185	0xbd6331dc	-0.05546747
186	0xbd667fcf	-0.05627423
187	0xbcf29864	-0.029613681
188	0xbcef81a4	-0.029236622
189	0xbbe6beb0	-0.0070417747
190	0xbd6e2df2	-0.058149286
191	0xbdeb776a	-0.11497386
192	0x3d038cf4	0.032116845
193	0xbdea375e	-0.11436342
194	0x3d97e394	0.07416454
195	0x3d8cbeb8	0.06872314
196	0x3d1c7d28	0.038205296
197	0x3c813e60	0.015776813
198	0xbd17a25c	-0.037020072
199	0xbc7b4598	-0.015336417
200	0xbcbffcfc	-0.023436062
201	0xbdd8067f	-0.10548114
202	0xbd82d8b9	-0.06388993
203	0xbc76c650	-0.01506193
204	0x3dc31f40	0.09527445
205	0xbddb59dc	-0.10710499
206	0xba9e97c0	-0.0012099668
207	0x3c2bc9f0	0.010485157
208	0xbd7c81ed	-0.061647344
209	0x3d972492	0.07380022
210	0x3d966384	0.073432
211	0x3de184e4	0.11011675
212	0x3dc6024c	0.09668407
213	0x3bd6bfa0	0.006553605
214	0xbd9c8dae	-0.07644211
215	0x3c11d770	0.008901462
216	0xbc044438	-0.008072905
217	0x3db4b258	0.08823079
218	0x3da18896	0.0788738
219	0xbddede69	-0.10882265
220	0xbdbfa31e	-0.09357284
221	0xbddf40ea	-0.10901053
222	0xbda3860b	-0.07984551
223	0x3cd40238	0.025879964
224	0x3de9f6f8	0.11424059

gating_networks.1.fc_layer.bias f4 [3]
0	0x3ce277a0	0.027644932
1	0xbda098ee	-0.07841669
2	0xbd269e82	-0.04067851

gating_networks.2.filters.0.weight f4 [25, 1, 3, 1]
0	0x3ecad668	0.39616704
1	0xbd3c0330	-0.045901477
2	0xbf0b7b30	-0.54484844
3	0x3f0e190c	0.5550697
4	0xbf043987	-0.5165028
5	0xbf025cda	-0.5092293
6	0x3ea0d1b2	0.31409985
7	0x3e124c38	0.14286888
8	0xbd4a7060	-0.049423575
9	0xbf09f63d	-0.53891355
10	0xbe7b123e	-0.24518678
11	0xbeebfcbb	-0.46091256
12	0x3e4f07b0	0.20217776
13	0x3d896a50	0.067097306
14	0xbd3b6a60	-0.045755744
15	0xbed6d520	-0.41959476
16	0x3de61558	0.1123454
17	0x3efd1ebc	0.4943751
18	0xbe5e46b0	-0.21706653
19	0xbe86ed4c	-0.26352918
20	0x3ec0fc78	0.37692618
21	0xbecfb34a	-0.40566474
22	0x3f0cf6e0	0.550642
23	0xbe0c3104	-0.13690573
24	0x3da89d58	0.08233136
25	0xbbeec480	-0.007286608
26	0x3e2f8944	0.17142206
27	0xbeb0a2e7	-0.34499285
28	0xbec15510	-0.3776021
29	0x3f122d3e	0.57100284
30	0xbda7b330	-0.08188474
31	0xbea453da	-0.32095224
32	0x3f025344	0.50908303
33	0x3efe97b0	0.49725103
34	0x3f0501c0	0.51955795
35	0xbf1271bc	-0.57204795
36	0xbe657c46	-0.22410688
37	0x3deedd60	0.11663318
38	0xbd55cd60	-0.052197814
39	0xbad56e00	-0.0016283393
40	0xbeaa70b9	-0.33289126
41	0x3ef4311c	0.47693717
42	0xbd2cd050	-0.04219085
43	0xbd9e4970	-0.07728851
44	0xbc9332a0	-0.017968476
45	0x3c812900	0.01576662
46	0x3e457044	0.19281107
47	0x3e78f8b4	0.24313623
48	0xbe401310	-0.18757272
49	0xbf056188	-0.52101946
50	0x3e30debc	0.17272466
51	0x3ed48fce	0.41515964
52	0xbef3a7c9	-0.47588947
53	0x3d8c2088	0.06842142
54	0xbf03b204	-0.51443505
55	0xbe300462	-0.17189172
56	0x3f0839d0	0.53213215
57	0x3f07b50a	0.5301062
58	0xbe15e22c	-0.14637059
59	0xbe6dcd14	-0.23222762
60	0x3eaed284	0.34144986
61	0xbec77816	-0.38958806
62	0xbe6e68ac	-0.23282117
63	0xbee9b89c	-0.45648658
64	0x3e86e02c	0.26342905
65	0x3e3d5de8	0.18492854
66	0xbe989ffb	-0.29809555
67	0xbe915fc8	-0.28393388
68	0x3ecec0ce	0.40381473
69	0x3e7bc104	0.24585348
70	0x3ee92930	0.45539236
71	0xbde6d338	-0.112707555
72	0xbe08f542	-0.13374808
73	0xbe7a3d6a	-0.2443749
74	0xbe685f3a	-0.22692576

gating_networks.2.filters.0.bias f4 [25]
0	0xbeb51830	-0.35370016
1	0xbd55a120	-0.052155614
2	0xbdafed80	-0.085902214
3	0xbf039874	-0.514045
4	0xbf0e6df8	-0.5563655
5	0xbe61672e	-0.22012016
6	0xbf0e35b4	-0.55550694
7	0x3c4e56c0	0.012593925
8	0xbde13040	-0.10995531
9	0x3f076c14	0.5289929
10	0xbf04617b	-0.51711243
11	0x3e22cb44	0.15897852
12	0x3eddfe20	0.43357944
13	0x3e6a0988	0.22855198
14	0x3dc2af08	0.09506041
15	0x3d918558	0.071055114
16	0xbf0278af	-0.509654
17	0x3d294b40	0.04133153
18	0x3f131edc	0.5746896
19	0x3eb32f90	0.34997225
20	0x3ec2a4e2	0.3801642
21	0x3e9cc554	0.306193
22	0xbec51b85	-0.38497558
23	0xbcb59100	-0.022163868
24	0x3eb4c8a4	0.35309327

gating_networks.2.filters.1.weight f4 [25, 1, 4, 1]
0	0x3dbb1570	0.09134948
1	0x3e375a3c	0.17905515
2	0xbe07c9cc	-0.13260573
3	0x3e2675d0	0.1625588
4	0x3e936552	0.2878824
5	0x3c675780	0.014119983
6	0xbebf8c1e	-0.37411588
7	0xbdfa9e70	-0.12237251
8	0x3e524850	0.20535398
9	0xbef4ee88	-0.47838235
10	0x3e51696c	0.20450372
11	0x3e927d12	0.28611046
12	0x3e9a83a8	0.3017857
13	0xbede2ce8	-0.43393636
14	0x3e7b9ee4	0.2457233
15	0xbec1bfd8	-0.37841678
16	0xbebfc610	-0.37455797
17	0xbc17f700	-0.009275198
18	0x3ef2f344	0.47451222
19	0x3ed01d2a	0.4064725
20	0x3e51f82c	0.20504826
21	0xbea7ec32	-0.3279739
22	0xbeea651c	-0.45780265
23	0xbc89f740	-0.01684153
24	0x3c22d2c0	0.009937942
25	0x3e96798c	0.29389608
26	0xbde8c338	-0.1136536
27	0xbd0c10e0	-0.03419578
28	0x3e17c27c	0.14820284
29	0x3daee830	0.0854038
30	0x3e066d10	0.13127542
31	0xbe3b0f54	-0.18267566
32	0xbef91cfa	-0.4865492
33	0xbe8f591e	-0.2799768
34	0x3eebeb96	0.46078175
35	0xbefb8b4e	-0.4912972
36	0x3d029870	0.031883657
37	0xbcd1b7e0	-0.025600374
38	0x3ecf9ac6	0.4054777
39	0xbef07ebc	-0.4697169
40	0xbd414cc0	-0.047192335
41	0x3d9503e8	0.07276136
42	0x3edafa3c	0.4276904
43	0xbd0e5850	-0.03475219
44	0x3e570d4c	0.21001166
45	0xbda677d0	-0.08128321
46	0x3e9c0f46	0.30480403
47	0xbd86d588	-0.065836966
48	0x3e92a4dc	0.28641403
49	0xbdd56858	-0.104202926
50	0x3d6bcd40	0.05756879
51	0x3ecac0e8	0.396003
52	0xbe93f82a	-0.28900272
53	0xbd1066a0	-0.03525412
54	0xbeeb44ac	-0.4595083
55	0xbec0de84	-0.37669766
56	0xbeaa26f8	-0.33232856
57	0x3eb7e9ea	0.3592065
58	0x3db3e330	0.08783567
59	0xbd945a10	-0.072437406
60	0x3ed7aea0	0.42125416
61	0xbd452850	-0.048134148
62	0xbe918900	-0.28424835
63	0xbeee0358	-0.46486926
64	0xbe73505c	-0.23761123
65	0x3eecb0e8	0.4622872
66	0xbefade88	-0.48997903
67	0xbe5de9f8	-0.21671283
68	0x3e9bb412	0.3041082
69	0xbd9f0370	-0.077643275
70	0xbd910510	-0.07081044
71	0x3ea549fa	0.32283002
72	0xbec295d6	-0.3800494
73	0x3ed959f2	0.42451435
74	0xbef6b154	-0.48182166
75	0x3ed62f6a	0.4183305
76	0xbe333db0	-0.17504
77	0xbdac4110	-0.08410847
78	0xbef005e0	-0.46879482
79	0x3c198b40	0.009371579
80	0x3ed19572	0.4093433
81	0xbdf6e3b8	-0.12055153
82	0xbeb21182	-0.34778982
83	0x3e761a90	0.2403357
84	0xbeada218	-0.3391273
85	0xbed44650	-0.41459894
86	0xbdb786c8	-0.08961254
87	0x3e1f0918	0.15530813
88	0x3ee4ccbc	0.4468745
89	0xbeb5175c	-0.35369384
90	0x3e3fe140	0.1873827
91	0x3ef4f1b6	0.4784066
92	0xbedd2dfc	-0.43199146
93	0x3eba5f6e	0.36400932
94	0x3dda97e8	0.10673505
95	0x3e9479fa	0.2899931
96	0xbea36ece	-0.31920475
97	0x3e90fa0c	0.2831577
98	0x3e1c44cc	0.15260619
99	0x3e388078	0.18017757

gating_networks.2.filters.1.bias f4 [25]
0	0x3e85ef30	0.26159048
1	0xbd906e60	-0.07052302
2	0x3ef24b7e	0.4732322
3	0xbbd53700	-0.0065068007
4	0x3e51b0cc	0.20477599
5	0x3e06971c	0.13143581
6	0xbe5cee4c	-0.21575278
7	0x3dcd05e8	0.10010892
8	0x3e264a54	0.16239291
9	0xbe1ab7c4	-0.15109164
10	0x3cff2d60	0.031149566
11	0xbe269d78	-0.16271007
12	0xbef162fa	-0.47145826
13	0xbed59a3c	-0.41719234
14	0xbd131230	-0.035906017
15	0xbe5af504	-0.21382529
16	0xbef37ea2	-0.4755755
17	0xbed5f336	-0.41787118
18	0xbe796be8	-0.24357569
19	0x3ef940d2	0.48682266
20	0xbec491da	-0.38392526
21	0x3e8caaca	0.27474052
22	0xbdf5b578	-0.11997503
23	0xbde77608	-0.113018095
24	0xbef17ac2	-0.4716397

gating_networks.2.filters.2.weight f4 [25, 1, 5, 1]
0	0x3ea021aa	0.31275684
1	0x3e96d2fe	0.2945785
2	0xbe38e368	-0.18055499
3	0xbe0ba1d2	-0.13635948
4	0xbeab73c0	-0.33486748
5	0xbed2821e	-0.41114897
6	0x3b052d00	0.0020321012
7	0xbed1c81e	-0.4097299
8	0xbcc3fbb0	-0.023923725
9	0xbe750647	-0.23928176
10	0x3da9b9d0	0.08287394
11	0x3e34c4cc	0.17653197
12	0xbed244f6	-0.41068238
13	0x3ec176be	0.37785906
14	0x3db33cb8	0.087518156
15	0xbb573700	-0.003283918
16	0x3b808040	0.0039215386
17	0x3e80bd56	0.25144452
18	0x3cc4fa60	0.02404517
19	0xbcede620	-0.029040396
20	0x3df27c00	0.118400574
21	0xbcd432b0	-0.025903076
22	0x3e0027d0	0.12515187
23	0xbe96f0b0	-0.29480505
24	0xbec92746	-0.39287776
25	0xbd149f60	-0.036284804
26	0x3ec8fe06	0.39256305
27	0x3ea36f60	0.3192091
28	0xbe07bbd6	-0.13255247
29	0x3e6c5400	0.23078918
30	0xbe93549a	-0.28775483
31	0xbe29bddc	-0.16576332
32	0x3d9e07e0	0.07716346
33	0x3d69b5f0	0.057058275
34	0x3e8cd316	0.27504796
35	0x3e907e34	0.28221285
36	0xbd1cc458	-0.038273185
37	0xbd484668	-0.04889527
38	0x3ea70f24	0.3262874
39	0xbdcc9b14	-0.09990516
40	0xbe9713d2	-0.2950731
41	0xbea2e192	-0.31812721
42	0xbe20587e	-0.15658757
43	0x3d17ba38	0.037042826
44	0x3e1ed078	0.15509212
45	0x3ec90b9e	0.39266676
46	0x3e846b0a	0.25862914
47	0xbe9e8c24	-0.30966294
48	0x3e4b8258	0.19873941
49	0xbeb32f69	-0.3499711
50	0x3e9bdd40	0.30442238
51	0x3e95f0a2	0.2928515
52	0x3eacdd52	0.33762604
53	0x3bb7f240	0.0056135952
54	0xbea73048	-0.32654023
55	0x3e129270	0.14313674
56	0xbeb114b8	-0.3458612
57	0x3ecdcf18	0.40197062
58	0xbe299b3a	-0.1656312
59	0x3e65a3e0	0.22425795
60	0xbe805b2e	-0.25069565
61	0x3e477cc0	0.19481182
62	0x3e26e3dc	0.16297859
63	0x3e828802	0.2549439
64	0x3d8039e0	0.06261039
65	0xbee0c6c3	-0.43901643
66	0x3e5e6268	0.21717227
67	0xbde4d654	-0.11173692
68	0xbdb40e54	-0.087917954
69	0x3e7caef8	0.2467612
70	0x3e88d93c	0.26728237
71	0xbe7c9add	-0.2466845
72	0xbebf957a	-0.3741873
73	0x3e81676a	0.2527421
74	0xbeb91794	-0.361508
75	0x3cb22730	0.021747202
76	0xbcb94700	-0.022616863
77	0xbe471fd6	-0.19445738
78	0xbe8c2900	-0.2737503
79	0x3e3426ec	0.17592973
80	0x3dc484f8	0.09595674
81	0x3e7f24f4	0.2491644
82	0x3e5b92fc	0.21442789
83	0x3ee03d20	0.43796635
84	0xbe8a84e0	-0.270545
85	0xbec419f2	-0.38301045
86	0xbedb309c	-0.42810524
87	0xbd54ac38	-0.051922053
88	0x3e2d944c	0.16951102
89	0xbe48f2fe	-0.19623944
90	0x3cb0b6d0	0.021571547
91	0x3dd1d088	0.10244852
92	0x3e94552a	0.28971225
93	0xbe9aece6	-0.30258864
94	0xbe9e289e	-0.30890363
95	0x3ea6bb94	0.32564986
96	0x3e48e6b8	0.19619262
97	0xbee0ab0d	-0.438805
98	0x3ecdc7aa	0.40191394
99	0xbd7731a0	-0.06035006
100	0xbcc9c8c0	-0.024631858
101	0x3e5fda54	0.2186063
102	0xbe57fb0b	-0.21091859
103	0xbe8a0c64	-0.26962578
104	0xbed5f142	-0.41785628
105	0x3dbaa570	0.09113586
106	0xbe6333e7	-0.22187768
107	0xbe2b322e	-0.16718361
108	0x3ec455d6	0.38346738
109	0x3e211694	0.15731269
110	0xbedc4ddc	-0.43028152
111	0xbea36c78	-0.31918693
112	0xbedd664e	-0.43242115
113	0x3ed7b120	0.42127323
114	0xbe7e3a28	-0.24826872
115	0x3ebfa0fe	0.37427515
116	0x3e689ee4	0.22716862
117	0xbe10a16e	-0.1412408
118	0x3d67aa90	0.056559145
119	0x3ec8f432	0.39248806
120	0x3d973db0	0.07384813
121	0x3e369d44	0.1783343
122	0xbeadb010	-0.33923388
123	0x3e46404c	0.19360465
124	0xbdd0f284	-0.10202506

gating_networks.2.filters.2.bias f4 [25]
0	0xbe5b27d3	-0.2140191
1	0xbe0654e8	-0.13118327
2	0x3ecab34a	0.39589912
3	0x3ecd8882	0.4014321
4	0xbe8e6b48	-0.27816224
5	0xbe45e902	-0.19327167
6	0x3b1eb000	0.002421379
7	0x3e50a76c	0.20376366
8	0xbe7373b0	-0.237746
9	0xbe9c7509	-0.3055804
10	0x3ed6c91e	0.41950315
11	0xbe0fdfac	-0.14050168
12	0x3e78e400	0.24305725
13	0xbe9f2841	-0.310854
14	0x3ea8295e	0.3284406
15	0xbecd17a0	-0.40057087
16	0x3ede396e	0.4340319
17	0xbe6c6bf9	-0.23088063
18	0xbea1d630	-0.31608725
19	0xbe6f7232	-0.23383406
20	0x3ecfcea2	0.40587336
21	0xbd5e54f0	-0.05428022
22	0x3e80fe78	0.25194144
23	0xbdbf667c	-0.09345719
24	0xbea49266	-0.32142943

gating_networks.2.fc_layer.weight f4 [3, 75]
0	0xbdb2e533	-0.087351225
1	0x3dc7e69c	0.09760782
2	0x3d032d34	0.03202553
3	0x3d095d20	0.033536077
4	0xbd7f78ff	-0.06237125
5	0xbd3effd2	-0.046630688
6	0xbbe3e5b0	-0.006954871
7	0x3db87c98	0.09008139
8	0xbdad09c1	-0.08449126
9	0xbba954c0	-0.0051675737
10	0xbd921b38	-0.07134098
11	0xbd4c7c46	-0.049923204
12	0xbd8f12a4	-0.06985977
13	0xbdd43ec8	-0.10363537
14	0xbde766df	-0.11298918
15	0x3ddcc976	0.10780613
16	0x3d80c096	0.06286733
17	0x3d9779ee	0.07396303
18	0xbde50bb9	-0.111838765
19	0x3d2bd514	0.041951254
20	0x3c0b3980	0.008497596
21	0xbd829532	-0.06376113
22	0xbca6c6b4	-0.02035842
23	0xbc0d2318	-0.008614324
24	0xbd48a1ea	-0.04898254
25	0x3d3e8fec	0.046523973
26	0x3d1b02ec	0.037844583
27	0xbc863884	-0.01638437
28	0x3de278a6	0.11058168
29	0x3dea43a6	0.11438684
30	0xbd0071b4	-0.031358436
31	0xbd807de0	-0.06274009
32	0x3ce98b08	0.028508678
33	0xbd344a16	-0.044015966
34	0x3d5be344	0.053683534
35	0xbc1c7218	-0.009548686
36	0x3da98ca6	0.0827878
37	0xbdded52e	-0.108805045
38	0xbdd273ac	-0.10275969
39	0xbd17fbc4	-0.037105337
40	0x3db23700	0.08701897
41	0x3dc08fc0	0.09402418
42	0xbd9cabf2	-0.076499835
43	0x3dd86e8c	0.1056796
44	0x3cfb9e78	0.030715212
45	0x3db52f9c	0.088469714
46	0xbd97d806	-0.0741425
47	0xbc95ad28	-0.018271044
48	0x3da041da	0.0782506
49	0xbd8ad9f6	-0.06779854
50	0x3c7dbbb0	0.015486643
51	0x3c9fd860	0.019512355
52	0x3d414afc	0.04719065
53	0x3db6209a	0.08892937
54	0xbd214294	-0.039370134
55	0xbd017f92	-0.0316158
56	0xbd4debc6	-0.05027368
57	0xbdbba8ca	-0.09163053
58	0xbcc8dc7c	-0.024519198
59	0x3deb30e2	0.11483933
60	0x3c94e378	0.018174872
61	0xbb22c100	-0.0024834275
62	0xbbeef7f0	-0.00729274
63	0xbdcae445	-0.0990682
64	0xbd152d26	-0.03642001
65	0xbdc037e1	-0.09385658
66	0xbc9da4ac	-0.01924356
67	0x3d84ed46	0.06490569
68	0x3d24f7c0	0.040275335
69	0x3da49750	0.08036673
70	0xbcbd2640	-0.023089528
71	0x3d5141d0	0.051088154
72	0x3dec00ae	0.11523567
73	0x3ca12df8	0.01967524
74	0xbdb4abbf	-0.088218205
75	0x3d85f7f0	0.06541431
76	0x3db773ba	0.0895762
77	0x3d6e2d7c	0.058148846
78	0xbddd8b10	-0.1081754
79	0x3d2b034c	0.04175119
80	0xbbedf970	-0.0072624013
81	0x3d562164	0.052277938
82	0x3d1ef2cc	0.038805768
83	0xbd5212f6	-0.051287614
84	0xbca91ef4	-0.020644642
85	0xbce1a188	-0.027542844
86	0x3d1038ac	0.035210297
87	0x3dec265e	0.115307555
88	0x3c8b6588	0.017016187
89	0x3da55a80	0.08073902
90	0xbcadcdfc	-0.021216385
91	0xbb4e6bc0	-0.003149733
92	0x3dbeb844	0.0931249
93	0xbc82409c	-0.015899949
94	0xbc0f5458	-0.008748136
95	0xbc264828	-0.010149039
96	0x3dd00672	0.10157479
97	0xbd50d56c	-0.050984785
98	0xbdda840d	-0.10669718
99	0x3dc9d39e	0.09854816
100	0x3b08f080	0.0020895302
101	0x3d04ab24	0.032389775
102	0xbdd7bb96	-0.10533826
103	0xbd39b426	-0.04533782
104	0x3ca5e250	0.020249516
105	0xbd2693c2	-0.040668257
106	0x3dcef296	0.10104863
107	0xbd93b5cb	-0.07212409
108	0x3db02fcc	0.086028665
109	0xbd6c9ac8	-0.0577648
110	0xbbf78dc0	-0.0075547397
111	0x3da39594	0.07987514
112	0x3d5bd36c	0.053668424
113	0x3cb4d690	0.022074968
114	0xbcf97414	-0.030450858
115	0x3c89f1f0	0.016838998
116	0x3d123234	0.03569241
117	0x3ddb556c	0.10709652
118	0x3d418fd8	0.04725632
119	0x3db078e0	0.08616805
120	0xbd2ed204	-0.042680755
121	0xbd298c2e	-0.04139345
122	0xbda692de	-0.081334814
123	0xbccef3cc	-0.025262736
124	0xbda4e419	-0.08051319
125	0x3d22925c	0.03969036
126	0xbcee01e8	-0.029053643
127	0x3cf720e8	0.030167058
128	0xbc8f7128	-0.017510012
129	0xbd3fcc5c	-0.04682575
130	0x3d5b2690	0.053503573
131	0xbdaaa630	-0.08332479
132	0x3be1e470	0.006893687
133	0x3d0d46a0	0.03449118
134	0x3c5fc0b0	0.01365678
135	0x3d76bd5c	0.06023918
136	0x3c91adc0	0.017783046
137	0xbdea32b5	-0.11435453
138	0x374b4000	1.2114644e-05
139	0x3dd3e102	0.10345651
140	0xbdac221f	-0.084049456
141	0xbb9763b0	-0.004620038
142	0x3d560e80	0.052259922
143	0xbd880928	-0.066423714
144	0x3dd80d16	0.10549371
145	0x3d9da8ae	0.07698189
146	0xbd2dc44e	-0.04242354
147	0xbdd19c2b	-0.10234865
148	0xbc184f10	-0.009296194
149	0xbda6136c	-0.08109173
150	0x3d9d5b4e	0.076834306
151	0x3d8ba86e	0.06819235
152	0xbde80ef4	-0.11330977
153	0xbdb51a67	-0.088429265
154	0x3d60a37c	0.05484341
155	0x3d70c008	0.058776885
156	0x3d3b528c	0.04573302
157	0x3d1954c8	0.03743437
158	0xbd71df54	-0.059050873
159	0xbda78a9c	-0.081807345
160	0xbd7c82ce	-0.061648183
161	0x3d4caa14	0.049966887
162	0xbd8f30f3	-0.06991758
163	0x3dd6afd0	0.10482752
164	0x3dc5d7ca	0.09660299
165	0x3d78a234	0.060701564
166	0x3dbf0304	0.09326747
167	0xbd6b4724	-0.05744089
168	0xbd93220b	-0.071842276
169	0xbdcd1dd9	-0.100154586
170	0x3b83a1c0	0.004017085
171	0xbda198cc	-0.07890472
172	0xbdd778ac	-0.10521063
173	0xbd6207bf	-0.05518317
174	0xbd2e0622	-0.042486317
175	0x3d519fe0	0.05117786
176	0xbd80e4c0	-0.062936306
177	0x3d0f1298	0.03492984
178	0x3ca7dff0	0.020492524
179	0x3d98ddfc	0.07464215
180	0xbc9598a0	-0.018261254
181	0xbdd933ae	-0.1060556
182	0x3d93d258	0.07217854
183	0xbcfc5260	-0.030800998
184	0x3dd11daa	0.10210736
185	0xbd8bf520	-0.06833863
186	0x3b360d60	0.0027778968
187	0xbb022e00	-0.0019863844
188	0x3d2d555c	0.042317733
189	0x3de77ea2	0.1130345
190	0x3d9c4270	0.076298594
191	0x3d27437c	0.040835842
192	0x3d5101ec	0.051027223
193	0xbda86636	-0.0822262
194	0xbdcf5e4c	-0.101254076
195	0x3cd68c60	0.026189983
196	0xbd964b50	-0.073385835
197	0x3b6cad00	0.0036113858
198	0xbdc14af6	-0.09438126
199	0xbd7d3b02	-0.061823852
200	0xbdcd6a64	-0.10030058
201	0x3cbe5de8	0.023238137
202	0x3ddbace0	0.10726333
203	0xbd146b2a	-0.036235012
204	0x3da18564	0.0788677
205	0x3ddf0b9c	0.10890886
206	0x3dc8ab3a	0.09798284
207	0xbd8938a9	-0.0670026
208	0xbd6bbd80	-0.05755377
209	0xbcf30660	-0.029666126
210	0x3dab006c	0.0834969
211	0xbce0da7c	-0.027447931
212	0xbdd2d512	-0.10294546
213	0xbdd839fc	-0.10557935
214	0x3db182c2	0.08667518
215	0x3ddf8cf0	0.109155536
216	0xbdd69221	-0.104770906
217	0x3d0f3eec	0.034972116
218	0xbd41e6d0	-0.04733926
219	0xbc9c2248	-0.019059315
220	0xbdeb9705	-0.11503414
221	0x3de95054	0.113922745
222	0xbd4258d4	-0.047447994
223	0xbddb9935	-0.10722581
224	0xbc1db6c8	-0.009626098

gating_networks.2.fc_layer.bias f4 [3]
0	0xbdea6999	-0.114459224
1	0xbd7aeed2	-0.061262913
2	0xbdd48c3d	-0.10378311
